mnist_model.pth (torch, 90608 bytes, 8 tensors)

conv.0.weight f4 [10, 1, 5, 5]
00000000: 8278 07be d5fe bfbd 0bdd 43be 6d5c 803e
00000010: 4232 823e 593e 45be 8fa1 6ebd a640 11be
00000020: 331a 603e 056b 483d 2141 97be 15a8 a8be
00000030: ddcf 1dbd 9c6e 883e 9cb1 8e3e dc6c c4be
00000040: 5f36 17be 0e8f 963e f969 ac3e 3c74 ac3d
00000050: cdfa 96bd 99f0 55be c85a b93e d4d0 a73e
00000060: 5604 00be 6334 a63e 0f57 963e c804 46bc
00000070: f1ae 95be e9ed 4bbd 27b3 e23e 896b 39be
00000080: fee4 60be e2e1 94be 7495 1a3e a790 d63e
00000090: e978 89be bd11 6dbe 9801 62be 5cb3 5d3e
000000a0: 4b3b 283e 4b04 49be 37bb 7bbe 5a25 2bbd
000000b0: dac3 7f3d 759e 383e 7150 1cbe 970a 4cbe
000000c0: 7169 9b3c 605a 563e e7fb 04bd b215 2cbe
000000d0: efbf 133e d634 ad3c f808 dabe 970d 01be
000000e0: 49a0 8bbd b128 f13e 6e4b 1dbd a6cf bdbe
000000f0: f485 d1bd 0983 253e eaad 983e 7636 943e
00000100: b23e 863e 024b e93c 99ac bb3d 04be 30be
00000110: 58b5 0bbe d206 a73e ea56 333e b739 82be
00000120: 4dc3 1fbc 2147 b3be 5198 483e 8d40 0a3d
00000130: b0e2 c93c 895a 0f3e f6f5 29be 15d4 0fbd
00000140: 5585 863d 4ea4 ad3c d67c dfbd c69a cd3d
00000150: c26b 67be 0dbe d3b9 5d0c 8b3c d817 82bd
00000160: 469a 4dbe a644 cdbc f906 31be fd08 013d
00000170: 088f 6cbe 24ff 3ebd 29bd f3bd 73bb b23d
00000180: fe20 1bbe 7297 32be 6bf1 1fbd f238 ddbd
00000190: 80d2 9f3e 357d c53e e998 b33e 2e0c a73e
000001a0: bb39 c23e 60a2 983e 3240 233e 2398 c43e
000001b0: f889 863e 10ff 3d3e bcab 9bbd cc55 9abe
000001c0: 5fd2 59be aaf3 44be 5d6a 24be d68f d0be
000001d0: ee38 b3bd 4712 a4be ff03 12be 1ef8 6abe
000001e0: 958c 1dbe 6c87 c9bd 2c00 58be 8b28 86bd
000001f0: 753b c8bd ebbb 653d b045 983e 4588 e8bd
00000200: 23c7 23be 114f 13be b184 993d 8b13 b93e
00000210: 62fa 85be dff4 71bd e99a 3bbe 4f9d 843e
00000220: 230b c13e e679 67be 1620 1ebe d9d7 a0be
00000230: ff0a 92bd 0778 0d3f 97a4 b6bd 2e6d 22be
00000240: 46d6 70be d333 b0bd 2b4d f23e d8b7 253e
00000250: 2828 1f3e 88a6 823e def8 fdbd 5ee7 78be
00000260: 9d9e 89be c9f6 82bd 409c b03e 2d0c 44be
00000270: d240 e6be 068e b63c 1935 d63e a0fa e43e
00000280: 528e 55be 7f51 3dbd e592 093f 0dd7 143f
00000290: 043c 82bc 380b 853d 84ab fd3e 6cce 0d3f
000002a0: c721 5b3d 43ef b7be 71bd ce3e b844 a63e
000002b0: 95fd 78bc 400c dbbe 2239 73be bebf d03a
000002c0: efc7 0abe 1dc8 3f3d 03b8 b33e 06e8 f13e
000002d0: 9e06 20be 4759 a9be 4656 d2be 9a24 b23e
000002e0: ec19 fb3e 8043 57be d0b2 06be a2a4 6dbe
000002f0: 91c0 013e 2f38 d93e 4086 3dbe 5ac3 a0be
00000300: 2a00 16be 9862 133e 4572 c53e 3ab7 eebd
00000310: f24b 96bd 0fbd a5be 7b0b f3bd df38 a53e
00000320: 77ff 043e 9ec9 1f3e 1b56 e23d 35fc 62bd
00000330: a9fb e03b 3812 9e3c 4c95 543c e59d fabd
00000340: e602 73bd 8be4 32be 33a0 01be 3782 2cbe
00000350: f608 67be aa03 02be f75d dfbd 17a1 a6bd
00000360: 4d26 75be 4339 38be f9e6 5dbe 3939 cdbc
00000370: 8901 14bd 000b 94bd 7a5e 783d 758a 453e
00000380: eb1f c73d a1f7 d4bd fbda b1bd 56af 123e
00000390: 8e24 903e d85b 3e3e 723a 403e 8eec 953e
000003a0: e309 4f3e 0a6c b53e d493 fc3e 6dfd ad3d
000003b0: 2ea4 943e d4b5 933d 7c03 9bbc fac2 bb3d
000003c0: af7b dbbe cb64 cbbe a014 63be 1e69 83be
000003d0: 824c 8c3c 098e a4bd 2379 9cbe 48b0 a7be
000003e0: 9897 00be 2c62 27be
-0.13229564 -0.09374777 -0.1912729 0.25070515 0.2542897 -0.19262065 -0.058259543 -0.14184818
0.21884994 0.048930187 -0.29541877 -0.32940736 -0.038528312 0.26646888 0.2786988 -0.38364303
-0.14766835 0.29406017 0.336746 0.084206074 -0.07372055 -0.20892562 0.36202073 0.3277651
-0.12501654 0.32461843 0.29363295 -0.012086101 -0.29235032 -0.049787436 0.44277307 -0.18107428
-0.21962354 -0.29078585 0.15096074 0.41907236 -0.2685006 -0.23151298 -0.2207092 0.21650451
0.16428868 -0.19630544 -0.24583136 -0.041783668 0.062442638 0.18029197 -0.15265061 -0.19925915
0.018971177 0.20932913 -0.032466795 -0.16805151 0.14428686 0.021143358 -0.42584968 -0.1260284
-0.06817681 0.47101358 -0.038402013 -0.37072486 -0.10230628 0.16163267 0.29820186 0.289478
0.26219708 0.02847815 0.0916378 -0.17259985 -0.13643396 0.3262239 0.17513624 -0.25434658
-0.009751153 -0.35015205 0.19589354 0.033752967 0.024644226 0.1399938 -0.16597733 -0.035114367
0.065684 0.02119651 -0.109124824 0.10039286 -0.225997 -0.00040386655 0.016973669 -0.06352204
-0.20078382 -0.025057148 -0.17287816 0.031502713 -0.23101437 -0.04663004 -0.11901314 0.08727159
-0.15149304 -0.17440584 -0.039048593 -0.10801877 0.31215286 0.38572088 0.350776 0.3262648
0.3793467 0.29811382 0.15942457 0.3839732 0.26277137 0.1855433 -0.07601115 -0.30143583
-0.21271656 -0.19233575 -0.160562 -0.40734738 -0.08751093 -0.32045195 -0.14259337 -0.22946212
-0.15385659 -0.09840283 -0.21093816 -0.06550702 -0.097769655 0.056087416 0.29740667 -0.11354116
-0.15993933 -0.1438563 0.07496012 0.36147723 -0.2616759 -0.059071418 -0.18320812 0.25901267
0.3770381 -0.22605094 -0.15441927 -0.3141468 -0.071310036 0.5526127 -0.08918112 -0.15861961
-0.23519239 -0.08603635 0.473245 0.16183412 0.15542662 0.25517678 -0.12400983 -0.2430701
-0.26878825 -0.06394727 0.3449421 -0.1914527 -0.4497133 0.022284519 0.41837385 0.44722462
-0.20855072 -0.0462203 0.5373977 0.5814064 -0.015897758 0.064962804 0.4954492 0.553931
0.05349901 -0.3592473 0.40378907 0.32474303 -0.015197177 -0.42782784 -0.23752263 0.0015926284
-0.13552831 0.046821702 0.35101327 0.47247332 -0.15627524 -0.33075926 -0.41081446 0.3479355
0.49043214 -0.21021843 -0.13154149 -0.23207334 0.12671115 0.42425677 -0.18508244 -0.3139904
-0.146485 0.1439308 0.38563743 -0.116560414 -0.07338704 -0.32370803 -0.11867424 0.32269952
0.12988077 0.15604255 0.110515796 -0.055416305 0.0068659377 0.019295797 0.012975048 -0.12237147
-0.059328936 -0.17469995 -0.12658767 -0.16846548 -0.22562012 -0.1269671 -0.10906594 -0.08136194
-0.23940392 -0.17990594 -0.2167014 -0.0250517 -0.036134277 -0.072286606 0.060636975 0.19291098
0.09722885 -0.10398794 -0.08684345 0.14324698 0.2815289 0.18589723 0.18772295 0.2928204
0.20218615 0.3543399 0.49331534 0.08495603 0.2903151 0.07212415 -0.01892256 0.09168048
-0.428678 -0.39725336 -0.22175837 -0.25666136 0.017126326 -0.080349036 -0.3056117 -0.3275168
-0.12557828 -0.16346043

conv.0.bias f4 [10]
00000000: 2839 16be a168 50be 2d21 9b3d 8f15 8ebe
00000010: c671 8e3e 0830 423b 6f17 a7bd c2c5 77bc
00000020: b2fe 67be bffd d93d
-0.14670241 -0.20352413 0.07574687 -0.27750823 0.27821177 0.002963068 -0.081587665 -0.015122833
-0.22655752 0.10644101

conv.3.weight f4 [20, 10, 5, 5]
00000000: 2f7a 94bd 9737 28bd 96c2 333d 5380 893d
00000010: f37c b6be 9951 ebbc d44f d13c 38f3 1d3e
00000020: d9f4 633d 31e7 37be 3932 abbc 9234 fc3d
00000030: 7660 003e cd0a 71bd b1ed dabd 085f 91bc
00000040: 8b79 1abd 2586 bcbd 8c5c 83be e983 c2bd
00000050: e77b d0bc 4fe9 24bd 0aae 96bd 8f42 b5bd
00000060: 3e45 23bd 8eb5 adbc fe21 2abd 0fda 7bbd
00000070: 56b4 87bb a568 b43d 0a7a eebd 9f36 2dbd
00000080: 73d3 093d f276 b93d c773 1e3e 4448 a3bd
00000090: 326b 98bd fa41 ae3d 1d0b 243d ccf5 803d
000000a0: ff86 cc3b fe59 343c ec03 8d3d 79bf 653c
000000b0: ca23 85bd ed69 06bc 66a2 87bd 4513 61bd
000000c0: ba10 253d 2298 a6bc 6c21 5e3d c58f c43c
000000d0: c9c2 b13c 7972 97bb 2c49 8b3c 2085 91bd
000000e0: 971d e5bc d779 8ebd f04f 7fbd b90b dcbd
000000f0: 77e0 d73d 551d f23c b36d 673a 6716 d8bd
00000100: c249 bdbd 8c88 9a3c 3e2d 48bd 467e 40be
00000110: ec74 efbd 0867 37be 136d c339 7f26 88bd
00000120: bfea 34be c189 5bbe fc6f dbbd 4423 0ebd
00000130: 13f5 9bbd 71c1 ecbd df17 7fbd 4bc4 85bd
00000140: e233 debc 153d 55bd 6bdf 103c b7c1 e13c
00000150: 8bc9 843d 2773 563d 8744 4c3d 60b6 9e3d
00000160: cbc9 923d efcf 213d 38cc 39bd 86b6 45bd
00000170: 9bed ca3d 6ffd 1d3d d6ed a33d 8924 65bd
00000180: 7c16 67bc 28b3 dcbc 9072 903d 8496 b53d
00000190: 14c0 02bc 26be 94bd 45a8 9bbd 6f0f abbc
000001a0: 57ab 0d3d 3de9 cebd aa6f 19be b58f 36bd
000001b0: 856b 64bd b008 3f3d effb 9e3d 2b98 363e
000001c0: ba53 c83d c6dc 133d 1cdb 93bd babe 7a3e
000001d0: 0011 293e 8ce5 1a3e b847 84bb cba7 aa3c
000001e0: 1d0c b33d 7bd0 ad3b 4fa5 0bbd 4357 5fbd
000001f0: 77fe dcbd bac4 0a3e 5acd 2bbe d290 20bd
00000200: 88f3 3d3b 9c7a 833d e45d 723d 956c a2bd
00000210: 6031 54bd 4165 e33d 285d 783d e333 4ebd
00000220: 34ce a63c b8b8 62bd 143b 2d3d b6f9 9bbd
00000230: 7b90 a83d fb23 eb3d dc34 68bd 4d15 d9bd
00000240: 4a46 d0bd 4988 413d 3635 08bd ee7a a8bd
00000250: 747e 03bc d37f 20be 493e 03be 93fa 40bc
00000260: a862 49bd c1c1 cb3d 5066 13be 2351 44be
00000270: cb9d 643d 518c e53d dc7b 623e 5d6d 11be
00000280: 8fb2 a6bc 38af cb3d 0bae 1b3d fc88 a93d
00000290: ab66 90be 568a 853b 6ee3 bfbd df1e 8fbd
000002a0: d8cc 2abe 5e8e 1fbd 027e a4bd 0f08 a1bd
000002b0: 1e88 26be e9e3 adbd 6785 f5bd a6b0 3a3e
000002c0: d531 923d e0fd dc3d 3269 5bbc fcfb afbe
000002d0: 7148 373d 77a7 f63c 3958 ea3d cd70 7c3d
000002e0: 4e6e cabd 4684 7cbd 2a62 b63d 06e4 543d
000002f0: 783f 2bbe 4ff3 b73a 1f3b 5ebd b1fb 9f3d
00000300: a441 f4bd 4aed 49be 51d4 cd3a 536d 68bd
00000310: afa9 0c3d 75bf 16be ee5c 22be 97d5 a9bd
00000320: 02ff 7ebd ada5 b0bd b76d 15be e8d8 10be
00000330: 4b24 d6bd e237 dc3b 12f4 c6bd 65a9 8bbd
00000340: 8d34 06bc 9c56 753d 5023 54bd 055e c43c
00000350: 7278 093e 5ba9 933c 317d 06bd 9032 a8bc
00000360: c4e6 043e 53a7 04bc 0123 193c 6c8c 823d
00000370: 680e 2c3d 3221 553d 0ae2 583d c1a5 8039
00000380: 17e0 013c da7f fa3c fb2e 69bc 1b9b ccbc
00000390: b8dc dfbc f854 a7bc 251b 8abd 03ec afbd
000003a0: 2d92 253b 5ff0 78bd 4c82 5bbd df29 ca3d
000003b0: c227 283e 4c9f 893d 1843 5cbd 265f 67bc
000003c0: f8e8 8a3c 97d8 d83d e932 483d 1fab 89bd
000003d0: a99c aab9 dc01 16bd f4fb fc3c 6bc5 31bd
000003e0: 3fc8 3bbe 0837 f8bd e6c4 1b3e 033c f73d
000003f0: a864 013b 2463 36bd 057f 8abc 144b 8b3d
-0.07249867 -0.04106864 0.043886743 0.06713929 -0.35642204 -0.028725432 0.02555076 0.15424812
0.055653427 -0.17959286 -0.020897971 0.123147145 0.12536797 -0.05884819 -0.10689867 -0.01774551
-0.03771357 -0.092052735 -0.25656545 -0.09497816 -0.025449706 -0.040261563 -0.07357414 -0.08850586
-0.039860956 -0.021204736 -0.041536324 -0.061487254 -0.0041413708 0.08809022 -0.11644371 -0.04228842
0.03364892 0.0905589 0.15473853 -0.07972768 -0.07442321 0.08508678 0.04004966 0.06296882
0.0062416787 0.011007784 0.06885514 0.014022701 -0.06500967 -0.008203966 -0.06622772 -0.054950017
0.040299155 -0.020336214 0.054231092 0.023994336 0.021699326 -0.0046218005 0.017002665 -0.0710547
-0.027968211 -0.06956833 -0.062332094 -0.107444234 0.1054086 0.029555002 0.0008828297 -0.10551148
-0.09242584 0.018863939 -0.04887127 -0.1879817 -0.11692223 -0.17910397 0.00037274565 -0.066479675
-0.17667674 -0.21439268 -0.10714719 -0.0347016 -0.076151036 -0.115603335 -0.062278625 -0.065315805
-0.027124349 -0.052060205 0.0088423295 0.02755819 0.06483754 0.05235591 0.04987004 0.07749629
0.07167395 0.03950494 -0.045360774 -0.04826977 0.09908601 0.03857177 0.08004348 -0.055943046
-0.014104482 -0.026940897 0.07053101 0.08866599 -0.007980365 -0.072628304 -0.07600454 -0.020881383
0.03458723 -0.101030804 -0.14984003 -0.044570643 -0.0557666 0.046639144 0.07762896 0.17831485
0.097815946 0.036099218 -0.07219526 0.24486819 0.16510391 0.15126628 -0.00403687 0.020831963
0.08742545 0.005304394 -0.034093197 -0.05452658 -0.10790723 0.13551608 -0.16777554 -0.03920061
0.0028984267 0.0641987 0.059171572 -0.07930867 -0.0518049 0.11103297 0.060635716 -0.05034245
0.020361997 -0.055351943 0.04229267 -0.07615988 0.082306825 0.11481472 -0.056691036 -0.10599766
-0.101696566 0.047249112 -0.03325387 -0.08226572 -0.008025754 -0.15673761 -0.12816729 -0.011778492
-0.04916635 0.09949065 -0.14394498 -0.19171576 0.055814546 0.11208404 0.22117561 -0.14201875
-0.020348815 0.0994553 0.038007777 0.08278081 -0.2820333 0.004075329 -0.09369551 -0.0698831
-0.16679704 -0.03895413 -0.080318466 -0.07862865 -0.16262862 -0.08490736 -0.11988335 0.18231449
0.07138411 0.1079061 -0.01339178 -0.34371936 0.04474682 0.03010915 0.114426084 0.061631013
-0.0988432 -0.061649583 0.08905442 0.051975273 -0.1672343 0.0014034304 -0.0542556 0.07811678
-0.119265825 -0.19719425 0.0015703534 -0.056744885 0.03434151 -0.14721473 -0.15855762 -0.08292692
-0.062254913 -0.0862535 -0.14592634 -0.14145243 -0.10456141 0.006720529 -0.097145215 -0.06819419
-0.00819124 0.05989705 -0.05179149 0.023970613 0.13424852 0.01802509 -0.032834236 -0.020531923
0.12978655 -0.008096534 0.0093467245 0.063744396 0.042005926 0.05203361 0.052949943 0.0002453756
0.007926962 0.030578543 -0.014232392 -0.024976304 -0.027326927 -0.020426258 -0.06743459 -0.085899375
0.002526413 -0.06077611 -0.053591058 0.098712675 0.16421416 0.067198366 -0.053774923 -0.014121806
0.016956791 0.10588186 0.048876677 -0.06722092 -0.00032541648 -0.036622867 0.03088186 -0.043401163
-0.18338107 -0.121198714 0.1521183 0.12071993 0.0019743834 -0.04452814 -0.01690627 0.068014294

conv.3.bias f4 [20]
00000000: 5ff2 30bc 1938 49bd 614b 85bc df31 a2bb
00000010: a699 84bc 38d3 1c3d 0faa 63bc 24d2 17bd
00000020: 1149 723d 4a28 1dbc 2739 73bd 7455 26bd
00000030: a7ff ddbc 7bcf 5fbd e546 a3bc 6119 dd3c
00000040: 93cb 203d 5454 a23c 97e6 7abd c82c 1cbd
-0.010799973 -0.049125765 -0.016271295 -0.0049497928 -0.016186547 0.03828737 -0.013895526 -0.03706564
0.059151713 -0.009592125 -0.059380677 -0.04060884 -0.027099444 -0.05464123 -0.019931266 0.02698964
0.039256644 0.019815601 -0.061255064 -0.038128644

fc.1.weight f4 [50, 320]
00000000: a770 113c fc2c bf3c ed88 7f3d f7c6 c9bd
00000010: d0d3 373d 5cf9 56bb 83ea d5bc 812d 0dbe
00000020: 28eb 013c afa2 bdbd 81be 3c3d ef9f a63d
00000030: 87bf b739 f949 183c 55f8 473d c89a 8a3d
00000040: 25a8 04bd e72a 94bd 0a60 d3bd 4bbb 8dbc
00000050: e850 be3d 2983 2dbb b6f2 fdbc b149 17bd
00000060: 0c59 2c3d 6b13 55bd aa5c f53c 7886 2d3e
00000070: 6f23 693d f432 25bd 263c 673d 459d 8a3e
00000080: 0c87 db3c 7203 fc3d 98fb 87bd 2e25 203c
00000090: 3235 ecba dc34 283c 1952 aa3d 354e 81bd
000000a0: 3052 c9bc 74e8 7fbd 5c2a 80be 8202 c9bd
000000b0: ce9e b13d 858e a2ba 167c 0fbd c13e bebd
000000c0: 30d3 733d 48c6 633d 7b61 853d 764f 923d
000000d0: b871 0b3d af78 24bd a8e0 0fbe 6334 28bd
000000e0: 949d 24bd fa5b b2bd 4db9 c3bd 67e9 cf3d
000000f0: 61a3 37be 5a5b 14bd dc03 47bd d562 c4bd
00000100: 0f0c 3dbd 465f 07bd 9402 2f3d 44d2 01be
00000110: 885b f13c 4247 d83d 16fe 013e 737c 2cbb
00000120: c952 f7bd 8639 4e3a ffe7 ef3c 1168 dabd
00000130: 305f 923d ff5b abba 2e9f cfbd ffcb 583b
00000140: 3960 4bbd 6296 973d 8815 c3bc fbb3 61bd
00000150: 4b70 c73d 6bf8 cbbd 0705 17be f291 e5bd
00000160: f67c 96bd a527 9dbd 2001 fabd 8072 b2bd
00000170: b92d bb3c b061 2f3e 117a b6bd 2d0c 28be
00000180: f916 893d c06c 033d ac4e 9ebd 9bc8 2dbd
00000190: 662e b03d 5598 633e 69cb 433d 2440 483e
000001a0: 16fc a93d 60c5 ae3d d98f bfbc 779d 013e
000001b0: 0f54 47bd 1295 18be 6b85 58bd 7fad bc3d
000001c0: f0ca 243d 42b5 0ebd db62 363d 109c a03d
000001d0: 8dbc 913c 9be4 a43c 97df d63c 6c82 663d
000001e0: f686 633d c9bb 183d 7847 0dbe 74ed c4bd
000001f0: e7e9 1ebe 2d0f c6bd 1f25 0bbd 07ee 753d
00000200: 7d17 873d 4ef9 aa3a 0fad fa3d cb66 e83d
00000210: bd37 ce3a f462 60bd a986 93bb b7e5 673b
00000220: f581 48bc 51e3 b9bd 4a7a a3bd 59e5 04be
00000230: 12cb 3abd 50ae abbd c64b 46be 6e97 76be
00000240: 9c87 543b 9c81 2f3d 1e92 74bd 82ef 413d
00000250: d893 2f3c 00ae 173c 9de9 61bc b2f6 b6bd
00000260: 9916 393e 701a 8d3d cca6 b7bd b946 10be
00000270: f35a 983d d5d0 4cba 1f91 2abd c92e 0abd
00000280: 6e69 ad3d f4c9 d8bc 5ef8 423c 2c66 cb3a
00000290: 6fc2 5b3d 8464 b43c 0110 c9bc 7592 bc3c
000002a0: 32ce 003d 6c0e 193d fd48 893d 7c5d c2bc
000002b0: 24fc 91ba bd28 b73d e93f 3d3d cbaa 3d3c
000002c0: d654 223d cb22 e73d 97c4 053d 8383 043e
000002d0: f43c b4bc 1c34 043d 034b da3d b2f3 083e
000002e0: 64b3 143e fdf0 5f3d 003a 663a 38cd 6ebc
000002f0: 1a5a 36bb 5a58 1f3e 63bc 44be 51a0 3ebd
00000300: 086c 12be e922 50bd bbaf 23be d1b4 55bd
00000310: 6ee7 003c 2e78 593d 7f88 46bd 600b 2d3c
00000320: 45df 4f3e c0ff 573d 7cd0 b2bc c48a 773d
00000330: a784 2f3d 639d 8d3c 3479 bb3c 2a2b 2b3d
00000340: d049 6c3a 2e4e 6f39 0303 56bc a059 29bd
00000350: 7370 e6bc bb4c 523e 0938 abbd b6c2 c8bd
00000360: 2618 c0bc 5868 773c 375a 8bbd b6c6 babd
00000370: ec21 8e3d b8f7 1f3e 831a 3c3d e9a0 08bc
00000380: b652 cdbb bd9e 31bd 80f6 da3d d53a ed3d
00000390: 8134 f23c dcd0 4cbd 3f35 b53d 6bb7 153e
000003a0: 9fd9 6d3d 373d c1bc 04e6 c0bb dbe0 e53c
000003b0: 8485 08bb 67ae 2e3d a773 b33d 48a6 513d
000003c0: 19e5 b5bd 2cca 8cbd cc3a 4fbe 0913 a0bd
000003d0: ceea b93d b61b e73c 7099 5b3c 66c4 e93d
000003e0: 201b 133e f1d2 d33d d1aa 60bd 78d3 483d
000003f0: 860d 0d3d 998d 553d f775 0b3e b7c6 ab3d
0.008876956 0.02333688 0.062386442 -0.09852403 0.044879735 -0.0032802438 -0.0261128 -0.1378689
0.007929601 -0.09259545 0.046080116 0.08135974 0.0003504718 0.00929498 0.048820812 0.067678034
-0.032386918 -0.072347455 -0.10321052 -0.017301222 0.092927754 -0.0026475883 -0.030999523 -0.036935512
0.04207711 -0.05202047 0.029951412 0.16945827 0.056918558 -0.040331796 0.056453846 0.27073112
0.026797794 0.12305345 -0.066397846 0.009774489 -0.0018021225 0.010266509 0.0831644 -0.06313745
-0.024575323 -0.062477544 -0.25032318 -0.098149315 0.08672868 -0.0012402093 -0.035030447 -0.09289313
0.059527576 0.055609018 0.065127335 0.07144062 0.034043998 -0.040154155 -0.14050543 -0.041065585
-0.04018934 -0.087089494 -0.09556828 0.1015194 -0.17933418 -0.036219932 -0.048587665 -0.09589163
-0.046154078 -0.033049844 0.042727068 -0.12677866 0.02946259 0.10560466 0.12694582 -0.0026319295
-0.12076337 0.0007866848 0.029285429 -0.1066438 0.07147062 -0.0013073682 -0.10137783 0.0033080576
-0.049652312 0.0740173 -0.023813978 -0.055103283 0.09738215 -0.09959491 -0.14748012 -0.112094775
-0.07348053 -0.07673577 -0.12207246 -0.087132454 0.02284895 0.17127109 -0.08910001 -0.16410895
0.06693835 0.032086134 -0.07729849 -0.04242764 0.086026 0.22226079 0.04780141 0.19555718
0.08300035 0.0853374 -0.023384022 0.12657724 -0.04866415 -0.14900616 -0.052861612 0.09212779
0.0402326 -0.03484083 0.04452787 0.078422666 0.017790103 0.020128539 0.026229663 0.056276724
0.05554863 0.03728846 -0.13796794 -0.09615603 -0.15518914 -0.09670863 -0.03397095 0.060041454
0.06596277 0.0013044269 0.122400396 0.11347731 0.0015733164 -0.05478187 -0.0045021367 0.0035384723
-0.012238015 -0.0907656 -0.07982309 -0.12978114 -0.04560382 -0.08382857 -0.19364843 -0.24081203
0.0032429462 0.042848215 -0.05970966 0.047347553 0.010716401 0.009257793 -0.013788608 -0.08933772
0.18075027 0.06889808 -0.08967361 -0.14089479 0.07439222 -0.0007813101 -0.041642305 -0.033736024
0.08467375 -0.026463486 0.011900036 0.001551812 0.053652223 0.022020586 -0.024543764 0.023019055
0.031446643 0.03736727 0.067033745 -0.023726217 -0.0011137766 0.08943317 0.046203528 0.011576365
0.039631687 0.11285933 0.032658186 0.12940793 -0.022001721 0.032276258 0.106588386 0.13374212
0.14521557 0.054673184 0.00087824464 -0.014575295 -0.00278247 0.15561047 -0.19212489 -0.04653961
-0.14299023 -0.050814543 -0.15985005 -0.052174393 0.007867677 0.053093128 -0.048470017 0.010561794
0.20300014 0.052734137 -0.021827929 0.06043507 0.042851117 0.017286962 0.022884943 0.04178921
0.00090136845 0.0002282194 -0.0130622415 -0.04134524 -0.028129792 0.20537083 -0.08360297 -0.09802763
-0.023449015 0.015100561 -0.068043165 -0.09119932 0.06940064 0.15621841 0.04592372 -0.008339145
-0.0062659634 -0.043364275 0.106915474 0.11583487 0.029566051 -0.05000387 0.088480465 0.1462075
0.058068868 -0.02358876 -0.005886795 0.028061321 -0.0020831535 0.04264679 0.08762293 0.05118397
-0.088815875 -0.06874499 -0.20237273 -0.07816131 0.090779886 0.028211456 0.013403282 0.11414413
0.14365816 0.10342968 -0.054850403 0.049029797 0.034436725 0.05213699 0.13619219 0.08387511

fc.1.bias f4 [50]
00000000: 430a 903b 8425 9e3c 3b6c 833c e6d9 21bd
00000010: ee10 283c d3e9 493d 9c64 34bc 5f03 8cbd
00000020: 18a9 5bb8 e6ee f0bc c433 4b3c b079 a0bd
00000030: 132e 7fbd 01f0 39bd b153 dbbc 060a fe3c
00000040: e229 303b 2ecf bbbd 0051 fd3c 2dc2 38bd
00000050: 576e 253d e818 23bd c3d9 d2bb 96cf c3bd
00000060: 4ab9 693c 21cb b1bc 96f9 983d 01af d03c
00000070: e634 a5bd 1415 373c 9d0a 3cbd 5116 01bd
00000080: 2a5b bebc d9c6 d1bc 12bb 89bd 5273 1fbd
00000090: 0a34 873d de37 ad3b 8ba4 7abd 7d46 82bb
000000a0: 0216 9d3c e299 333d 2bc4 f13c 2ff3 323c
000000b0: b4e2 eebc 7552 223d 7365 8c3d 0790 5f3d
000000c0: d103 08bb ce30 54bd
0.0043957545 0.019304998 0.01604282 -0.039514445 0.010257943 0.049295258 -0.011010315 -0.068365805
-5.237115e-05 -0.02941079 0.012402479 -0.0783571 -0.0622998 -0.0453949 -0.026773306 0.031010639
0.0026880433 -0.09170376 0.030922413 -0.045107055 0.04038843 -0.039818674 -0.0064346506 -0.09561078
0.014265368 -0.021703305 0.0746948 0.025474073 -0.0806673 0.011174459 -0.04590856 -0.031515423
-0.02323683 -0.025607513 -0.06725134 -0.038928337 0.066017225 0.005286201 -0.061192077 -0.003975688
0.019175533 0.043847926 0.029512485 0.010922237 -0.029160835 0.03962942 0.068552874 0.054580715
-0.0020754228 -0.051804356

fc.4.weight f4 [10, 50]
00000000: 7f35 933d eb82 00be cd2e 953d 5d74 05be
00000010: af64 473e ed2f 203e 5f18 bdbe 1dc8 3b3e
00000020: c8de 1a3e 1690 4f3e cc4b 79be 18e6 993d
00000030: 391c 19bd 10ce 3dbc f51e 093c 9c8b bebd
00000040: 6bb1 d2be a9a1 e13d d280 ed3d 223b c73d
00000050: aa6e a53d 9758 8c3d 879e 29be 4682 45be
00000060: 6961 e43d 2195 513d 4978 ab3d 2ac4 1e3e
00000070: 7f02 73be b795 a4be c915 08be 9715 c2be
00000080: 0602 d7bd 3330 053e f385 47be a169 143e
00000090: 35eb 57be f7bc c33d bf91 793c 49cb a1bd
000000a0: 3a82 c13d 1039 2c3d ae8e 77be 3ee0 17bd
000000b0: 2e24 fbbd ceed 9cbe 9368 85be 6559 b6be
000000c0: eeae 2fbe fe3d d2bd 7336 93be 5557 0cbd
000000d0: ee58 8f3d fe39 22be d686 3bbe f806 6ebe
000000e0: 7505 613e d50b eebe 42fe 71be 4fa3 21be
000000f0: 4fb6 f7bd 5c7e b73d 161a 07be e548 a83d
00000100: 2a8e 97be fbea 2f3e 7297 313e ce55 2abe
00000110: 1734 8ebe 16d8 1f3e f1ef e6bd 8622 2ebd
00000120: 768a 1c3e d8a7 83be 484f bcbe 080a 23be
00000130: 4551 a6be b0a7 163e 348f 72be 4aab 373e
00000140: f1ad a1be 381b 063e c9a0 51be 38b3 8fbe
00000150: 38a8 45be 68c5 92be 8a25 1d3e b7cf 3dbd
00000160: d414 2a3d a3ac 08bd 7ca7 1e3e 0f38 a1be
00000170: e4fe 66be 985a 8d3c 78eb fcbd 2204 1d3e
00000180: 8716 16be e65f 4c3e 1564 87be 186e a0be
00000190: 681b 873d c282 0a3d ae52 da3d 628f 443e
000001a0: 03c3 0fbe 25b2 153e 987d 16be 30c9 5dbe
000001b0: b5de 49be df2a 50be 479a 023e 6203 74be
000001c0: dc45 043e ed94 d63d c758 0c3e 5cba 003e
000001d0: 74df fb3d 9cfa ce3d 6e82 16be 9fb0 02be
000001e0: 5951 b13d 27e4 aa3d e6a5 79be 0c74 86be
000001f0: c280 b83d 971c 79be a614 31be 18f0 0a3e
00000200: 32f5 113e 3a06 16be 1d02 203d dacf 0b3e
00000210: fa11 37be 2125 2dbe 94e1 6fbd 0707 72be
00000220: 73b6 14be 2765 303e 9114 81bd 3086 84bd
00000230: 1199 073e ab56 873d 7a1a 68be 17ac 7c3d
00000240: 83e9 41be ae82 0e3e 2a10 8fbd dfe9 09be
00000250: 6f5b e13d 75c4 08be 0a1b 0cbe fac2 ad3b
00000260: 8813 23bd 0a97 433e b2e0 86be 9fd2 57bd
00000270: 54d3 e7bd bb49 4cbe 901b 36be 3f2a b7bc
00000280: fef1 63bd 0faf 55be 31cd cbbd 952c b7bd
00000290: 051c 26be 1558 29be cdc3 0d3e 6ed9 78be
000002a0: 691a 333e f425 76be c66e f63d 5b78 e3bc
000002b0: 6fa7 1dbe 485b 943d fd0f 7ebd c63e b1bd
000002c0: c42a 153e e74d 17be 65f0 ebbd 4c1d 233e
000002d0: 5a0b 01bd faa4 0d3e 030b 023e f60e 87bd
000002e0: 6d4b 5dbe d44a 103e 2882 2fbe b8bc 7dbe
000002f0: 36b9 dc3d 12ef 16bc 5d45 29be 32fa a03d
00000300: 4174 07bd b4d7 ba3d 5273 08be 26a5 fe3d
00000310: 452c 563e 7771 1bbe 2089 0d3e 34a1 313e
00000320: e73a aa3d aec8 813d c8b7 a83d 02c3 90be
00000330: 32b5 413e 0ce3 16be ab6d 323e 96c7 b73c
00000340: 16c3 123e 3af9 ffbd c242 d63d 7793 ac3d
00000350: 063e 0cbe 4f9d c8bd e743 a83d 0ab0 033e
00000360: 6900 8cbe d23e 143d 3e40 063e 8675 1fbe
00000370: 7a8d 86be 1ab2 e53d 4b5a 053e 07cf 5bbe
00000380: d6fd 24be 7b60 6cbe ff8b a4be e01c f5bd
00000390: b740 093e ab4f 103e 07c5 f4bd 6f6c 76be
000003a0: 3ea2 b33b 0d8a c2be 3662 153e c4c7 3dbe
000003b0: c79b 193e 9061 353e c0a1 24bd cfa5 05be
000003c0: f716 d8bd f361 b9be d013 d3bb 4049 dfbd
000003d0: c705 073e 5099 dabd a15a 1c3e eb67 323e
000003e0: 13ac 97be 06c8 c6bd c213 63be 1844 74bd
000003f0: eca6 c93b 28ee e6bd c513 bbbd dd3f 4bbe
0.07187938 -0.12549941 0.07284317 -0.1303267 0.19472001 0.15643282 -0.36932656 0.18338056
0.15124047 0.20269808 -0.2434532 0.0751459 -0.03738043 -0.011584774 0.008369197 -0.09303972
-0.41150984 0.11017162 0.11596836 0.097280756 0.08077748 0.06852835 -0.1656438 -0.19287977
0.11151392 0.05116761 0.08372552 0.15504518 -0.23731421 -0.32145473 -0.1328956 -0.37907097
-0.10498433 0.13006668 -0.19484691 0.14493419 -0.21085818 0.095575266 0.0152325025 -0.07900102
0.09448667 0.042046607 -0.24175522 -0.03707909 -0.1226276 -0.3065018 -0.26056346 -0.35615078
-0.17156574 -0.1026573 -0.2875248 -0.034262974 0.06999384 -0.15842435 -0.18313155 -0.23244846
0.21974738 -0.46493402 -0.23632148 -0.15784954 -0.120953195 0.08959648 -0.13193545 0.082170285
-0.2960065 0.17179482 0.17342928 -0.16634294 -0.27774116 0.15609774 -0.11276234 -0.042513393
0.15287194 -0.25713992 -0.36779237 -0.15921795 -0.3248388 0.14712405 -0.2368744 0.17936435
-0.3157802 0.1309632 -0.20471491 -0.2806642 -0.19302452 -0.28666234 0.15346351 -0.04634067
0.04152377 -0.033367764 0.15493578 -0.31488082 -0.2255817 0.017255113 -0.123495996 0.15333608
-0.14657031 0.19958457 -0.26443544 -0.31333995 0.06597024 0.033816107 0.10660301 0.19195321
-0.14039235 0.14618738 -0.14696348 -0.21658778 -0.19713862 -0.20328854 0.12754165 -0.23829415
0.12917274 0.10477624 0.13705741 0.1257109 0.1229848 0.10106394 -0.14698192 -0.12762688
0.08658094 0.08344298 -0.24379691 -0.26260412 0.090089336 -0.24327312 -0.17293033 0.13568151
0.14253691 -0.14650813 0.039064515 0.13653508 -0.17877951 -0.16908695 -0.058564737 -0.23635493
-0.14522724 0.17226087 -0.06302751 -0.06470907 0.13241984 0.066083275 -0.2266635 0.061687555
-0.18936734 0.13917038 -0.06985505 -0.13468121 0.11003768 -0.13356192 -0.1368219 0.005302784
-0.03981355 0.19100586 -0.26343304 -0.0526911 -0.113196045 -0.19950001 -0.17783952 -0.022359012
-0.055650704 -0.20867561 -0.099512465 -0.0894405 -0.16221626 -0.16537507 0.13844223 -0.24301693
0.17490543 -0.24037915 0.12032847 -0.02776735 -0.15395902 0.07243973 -0.062026966 -0.08654551
0.14567095 -0.14775811 -0.11520461 0.15929145 -0.031504966 0.13832465 0.12699513 -0.065946504
-0.21610804 0.14091045 -0.17139494 -0.24779022 0.10777514 -0.009212272 -0.16530366 0.07860221
-0.033069853 0.09123173 -0.13325241 0.12433843 0.20915325 -0.15180002 0.1382184 0.1734665
0.08312016 0.06337105 0.082381785 -0.2827378 0.18916777 -0.14735049 0.17424648 0.022434037
0.14332232 -0.12498708 0.10461952 0.08426564 -0.13695535 -0.09795629 0.08216076 0.12860122
-0.27344063 0.036192723 0.13110444 -0.15572175 -0.26279813 0.11215611 0.13022725 -0.21465693
-0.16112456 -0.2308368 -0.3213806 -0.11968398 0.13403593 0.14092891 -0.119516425 -0.24064802
0.0054819873 -0.3799595 0.14588246 -0.18533236 0.1500083 0.17712998 -0.04019332 -0.13051532
-0.10551255 -0.36207542 -0.006441571 -0.10902643 0.13185798 -0.10673773 0.15268947 0.17422454
-0.2962347 -0.0970612 -0.22175506 -0.05963525 0.006153932 -0.112758934 -0.0913463 -0.1984858

fc.4.bias f4 [10]
00000000: f28e 2b3c 872f 153f af7e 7dbd 0d42 343e
00000010: 8fe8 a0be 3b82 64bd 136b 86be d45c 523e
00000020: a04b 223d 681f 8ebc
0.010471093 0.58275646 -0.061888393 0.17603321 -0.31427428 -0.05578826 -0.26253566 0.20543224
0.039622903 -0.01734896
