mnist_model.pth (torch, 90608 bytes, 8 tensors)

conv.0.weight f4 [10, 1, 5, 5]
0	0x3d19dc88	0.03756383
1	0x3d38f59b	0.045156103
2	0x3ea71d26	0.32639426
3	0x3ee46f7a	0.446163
4	0x3e853d39	0.26023272
5	0xbd89cb9d	-0.06728289
6	0x3baedf1b	0.005336655
7	0xbd1a15fa	-0.037618615
8	0x3ea955e5	0.33073345
9	0x3ec10477	0.3769872
10	0xbe55cc13	-0.2087863
11	0xbde67e5a	-0.112545684
12	0xbe963989	-0.2934077
13	0xbd556f14	-0.052107885
14	0x3ed01a31	0.40644982
15	0xb947bed0	-0.00019049202
16	0xbe0d04f6	-0.13771424
17	0xbe6f62e7	-0.23377572
18	0xbe90c2ba	-0.28273565
19	0x3e03b798	0.12863004
20	0xbe87880f	-0.26470992
21	0xbe6b64e0	-0.229877
22	0xbe867adb	-0.26265606
23	0xbe9197d4	-0.28436148
24	0xbbc0b0fe	-0.005880474
25	0xbe11cdaa	-0.14238611
26	0xbe573a5f	-0.2101836
27	0xbe4f8263	-0.20264582
28	0xbe1b96b4	-0.15194207
29	0xbc4a4058	-0.012344442
30	0xbde5b6fe	-0.112165436
31	0xbe7fc11f	-0.24976014
32	0xbe258598	-0.16164243
33	0xbe6cd398	-0.23127592
34	0xbe717b8d	-0.23582287
35	0x3d0235a5	0.03178944
36	0x3df61a94	0.12016788
37	0xbdb2461e	-0.0870478
38	0x3d7237bd	0.059135187
39	0xbcbf9157	-0.023384733
40	0x3e5769d1	0.2103646
41	0xbdce669d	-0.10078166
42	0x3dd4bb6e	0.10387312
43	0x3d9bc4cd	0.07605896
44	0x3d1dd27e	0.03853082
45	0x3dfc22b7	0.12311309
46	0x3e5847d6	0.21121153
47	0x3e2b5e11	0.16735102
48	0x3e09f075	0.13470633
49	0x3d69a0c9	0.057038102
50	0x3dc0f05f	0.09420847
51	0xbd2496ac	-0.040182754
52	0xbeb28afc	-0.34871662
53	0xbeb16df3	-0.34654197
54	0xbe999f20	-0.30004215
55	0x3e8ef0b3	0.27918014
56	0x3b988ccc	0.004655456
57	0xbe819570	-0.25309324
58	0xbd8d69f9	-0.06904978
59	0xbe528875	-0.20559867
60	0x3df1e3cd	0.11811028
61	0x3f1203a6	0.5703682
62	0x3f156e6c	0.58371615
63	0x3edb321f	0.42811677
64	0x3e9fe519	0.31229475
65	0x3c9f6588	0.019457594
66	0x3e9ab6e8	0.3021767
67	0x3eac7c14	0.33688414
68	0x3e3ec4ba	0.18629733
69	0x3e42f880	0.19040108
70	0xbec09e04	-0.37620556
71	0xbeac00f7	-0.33594486
72	0xbe4853c7	-0.19563209
73	0xbe362d87	-0.17790805
74	0x3e40d90c	0.18832797
75	0xbe21bd8f	-0.15794967
76	0xbe373ab7	-0.17893492
77	0x3d32fe4d	0.04369955
78	0x3ec84342	0.39113814
79	0xbc6caa76	-0.014444938
80	0xbdeea4b1	-0.11652506
81	0xbdbc51e1	-0.09195305
82	0xbe583e97	-0.21117626
83	0x3e8bb484	0.2728616
84	0x3e50dd28	0.20396864
85	0xbead8c50	-0.33896112
86	0xbe28c2d9	-0.16480578
87	0x3d6338c1	0.055474047
88	0x3ed73603	0.42033395
89	0x3e23df1a	0.16003075
90	0xbddd57e9	-0.10807783
91	0xbe78ea89	-0.24308218
92	0x3ebdfa36	0.37104958
93	0x3e8097f8	0.25115943
94	0x3e340357	0.17579399
95	0xbe174656	-0.14772925
96	0x3e09c558	0.13454187
97	0x3eb76beb	0.35824522
98	0x3df89c48	0.12139183
99	0x3d970f12	0.07375921
100	0x3e339ea0	0.1754098
101	0xbcd04f5b	-0.025428465
102	0x3e26421c	0.16236156
103	0x3d915939	0.07097096
104	0xbc863511	-0.016382726
105	0x3e1dae8a	0.15398613
106	0xbdb6e30a	-0.08930023
107	0xbec65e7a	-0.38743955
108	0xbe72e3a3	-0.23719649
109	0x3ed2819c	0.4111451
110	0xbe94991f	-0.29023072
111	0xbe2caa23	-0.16861777
112	0xbea66324	-0.32497513
113	0x3e299a80	0.16562843
114	0x3ee2e71b	0.44316944
115	0xbe425764	-0.1897865
116	0xbd57c075	-0.052673776
117	0xbe2eccd8	-0.17070329
118	0x3ed76b9a	0.4207428
119	0x3e7a68b8	0.2445401
120	0xbe0b503f	-0.1360483
121	0x3e5caa97	0.2154945
122	0x3d8a5070	0.067536235
123	0x3ea244b3	0.31693038
124	0xbe544ecd	-0.20733185
125	0xbda87ee1	-0.08227325
126	0xbe66a11c	-0.22522396
127	0xbe5a0d30	-0.21294093
128	0xbdc2e775	-0.09516803
129	0xbd80ca27	-0.062885575
130	0xbea77813	-0.32708797
131	0xbe83dddb	-0.257552
132	0xbe91f10f	-0.28504226
133	0xbe7df136	-0.24799046
134	0xbe3ff4f3	-0.18745784
135	0x3de2d0a3	0.110749505
136	0xbec5571b	-0.3854302
137	0xbe1356cb	-0.14388578
138	0x3ee109c1	0.43952754
139	0x3ec51c10	0.38497972
140	0x3e5b4d0c	0.2141611
141	0x3eb49f54	0.35277808
142	0x3e9a165f	0.30095193
143	0x3dfb6b88	0.12276369
144	0x3d9548d1	0.07289279
145	0x3e735e13	0.23766355
146	0x3ecddecb	0.4020904
147	0x3ec53dbe	0.38523668
148	0xbe10edac	-0.14153165
149	0xbe5bf198	-0.2147888
150	0x3d220e08	0.039564162
151	0xbd38b452	-0.04509384
152	0x3dfe80ad	0.12426887
153	0x3dc6bb83	0.09703734
154	0x3e84fcd4	0.25974143
155	0xbe8cd48e	-0.27505916
156	0xbe7b43f3	-0.2453764
157	0xbd2ff106	-0.042954467
158	0x3db4b317	0.08823221
159	0x3ea6cdde	0.3257894
160	0xbd997f15	-0.07494942
161	0xbba6847c	-0.0050817113
162	0xbe20ce7a	-0.15703765
163	0x3d03b2d8	0.03215298
164	0x3ea2cc2d	0.317964
165	0xbe474818	-0.19461095
166	0xbdb96417	-0.09052294
167	0x3d30436d	0.043033052
168	0x3e9251ea	0.2857812
169	0x3e8fb2bf	0.2806606
170	0xbe84d480	-0.25943375
171	0xbe3ac4fd	-0.18239208
172	0x3e153b94	0.14573509
173	0x3e9e6678	0.30937552
174	0xbdf73e4e	-0.120724306
175	0x3d6508b9	0.05591652
176	0x3e3d8c33	0.18510513
177	0x3f04837e	0.5176314
178	0x3ed14a15	0.40876833
179	0xbd7d77bd	-0.06188177
180	0x3e80c79c	0.2515229
181	0xbc1728ec	-0.009226065
182	0xbe3dcd90	-0.18535447
183	0x3d73159f	0.05934679
184	0x3e269d21	0.16270877
185	0xbe262f79	-0.16229047
186	0xbe9a298b	-0.3010982
187	0xbe85bf4a	-0.26122504
188	0x3e1fb792	0.1559737
189	0x3e3eed74	0.18645269
190	0xbe48fc6b	-0.1962754
191	0x3d1175aa	0.035512604
192	0xbde5fe0a	-0.11230095
193	0xbe8c3126	-0.27381247
194	0x3df1abf3	0.11800375
195	0x3d6055a3	0.05476917
196	0xbdb351a7	-0.08755808
197	0x3b8b67cd	0.0042543174
198	0xbe457a78	-0.19285
199	0xbde2a325	-0.110662736
200	0x3f0bf248	0.54666567
201	0x3ecd991a	0.4015587
202	0x3dafe847	0.08589225
203	0x3dff8ac6	0.12477641
204	0xbda635f6	-0.08115761
205	0x3e0d20a1	0.13781978
206	0x3e50ae29	0.20378937
207	0xbc697715	-0.014249583
208	0x3bdfb5a7	0.0068270746
209	0xbe2f9912	-0.17148235
210	0x3e4b5f6f	0.19860624
211	0xbe6b0b71	-0.22953583
212	0xbd601511	-0.05470759
213	0xbe36d00c	-0.17852801
214	0xbd471835	-0.04860707
215	0xbe0f99a2	-0.1402345
216	0xbe9ac8e6	-0.30231398
217	0xbe9521c5	-0.29127327
218	0xbe994379	-0.2993429
219	0xbe18adfe	-0.14910123
220	0x3d9772f2	0.07394971
221	0xbe9599d3	-0.2921892
222	0xbcc47e7a	-0.02398609
223	0xbdbbe5b9	-0.091746755
224	0xbe0a4d77	-0.13506113
225	0xbe2279b9	-0.15866746
226	0xbd9d6e19	-0.07687015
227	0x3e64c991	0.22342516
228	0x3cc0c6e9	0.023532348
229	0xbe1c9d2f	-0.15294336
230	0x3e722996	0.23648676
231	0x3ec21744	0.37908375
232	0x3e4d1458	0.20027292
233	0x3e8284c3	0.25491914
234	0x3e79357f	0.24336813
235	0x3e4a7149	0.19769777
236	0xbd3145ae	-0.043279342
237	0x3df4ba33	0.11949577
238	0x3e9ffca6	0.31247443
239	0x3e1f78c3	0.1557341
240	0xbe14875b	-0.14504759
241	0xbcbaa09c	-0.022781663
242	0xbe5669dc	-0.2093882
243	0xbdb2a2ed	-0.08722482
244	0xbd48f337	-0.049060073
245	0xbe8abd5c	-0.27097595
246	0xbeabc974	-0.33552134
247	0xbeb6c878	-0.3569982
248	0xbeca3544	-0.39493763
249	0xbe6146ae	-0.21999618

conv.0.bias f4 [10]
0	0xbe1c0e1b	-0.15239756
1	0xbe8c5f0f	-0.27416274
2	0x3d552e51	0.052046124
3	0x3e1a045d	0.15040727
4	0x3e796a90	0.24357057
5	0x3d258919	0.04041395
6	0x3e15d451	0.14631774
7	0x3e19eaf1	0.1503103
8	0xbd687de3	-0.05676068
9	0xbd800f93	-0.062529705

conv.3.weight f4 [20, 10, 5, 5]
0	0xbb7ab239	-0.0038253202
1	0x3dcbd507	0.09952741
2	0x3e499f63	0.19689707
3	0x3e245034	0.1604622
4	0xbd9329a6	-0.07185678
5	0xbe60ec3e	-0.21965119
6	0xbddde160	-0.108340025
7	0x3cc25a39	0.023724662
8	0x3d8faaa9	0.07014973
9	0xbb5f369d	-0.0034059652
10	0xbd45e412	-0.048313208
11	0xbd7b7ff6	-0.06140133
12	0xbc50820c	-0.012726318
13	0x3ca26167	0.019821836
14	0xbbea238e	-0.0071453517
15	0xbd657747	-0.056021955
16	0xbdeb7220	-0.11496377
17	0x3d33f6b9	0.043936465
18	0x3d6ec8cd	0.058296967
19	0x3d771ece	0.060332112
20	0xbe9ad221	-0.3023844
21	0xbe4ece16	-0.20195803
22	0xbcb2d886	-0.021831762
23	0x3dc432d0	0.09580004
24	0x3e1f356c	0.15547723
25	0xbd7c9b3f	-0.06167149
26	0xbd888a82	-0.06667043
27	0xbc9fd4fd	-0.01951074
28	0xbde2eece	-0.11080705
29	0xbe04599f	-0.12924813
30	0xbe0c7455	-0.13716252
31	0x3cb845ea	0.022494275
32	0xbc9298ca	-0.017895121
33	0xbc038d8f	-0.008029356
34	0xbc46d28f	-0.012135162
35	0xbddd3e4f	-0.108029
36	0x3c1251af	0.008930608
37	0xbd1d3769	-0.03838292
38	0xbcb7d658	-0.022441074
39	0xbe1b6125	-0.15173776
40	0x3a8f74ad	0.0010944806
41	0x3d30fe8f	0.043211516
42	0xbdb092f5	-0.0862178
43	0xbdce1f86	-0.10064606
44	0xbe0d6d48	-0.13811219
45	0xbd051eb8	-0.0325
46	0xbcade78a	-0.02122857
47	0xbbf1d642	-0.007380278
48	0xbcca2aaa	-0.024678547
49	0xbd686df1	-0.056745473
50	0xbcc613e0	-0.024179399
51	0xbe653825	-0.22384699
52	0xbd808e11	-0.06277097
53	0xbdb28df7	-0.08718484
54	0x3b16dd5c	0.0023020124
55	0xbdce3d6e	-0.100703105
56	0xbe10fd5e	-0.14159152
57	0xbe295592	-0.16536549
58	0xbe636774	-0.22207433
59	0xbd578b6c	-0.052623197
60	0xbe0fd5ba	-0.14046374
61	0xbe82acf9	-0.25522593
62	0xbe5f5666	-0.21810302
63	0xbeb007bc	-0.343809
64	0xbe04df47	-0.12975799
65	0xbe107670	-0.1410768
66	0xbd766ca8	-0.060162216
67	0xbe059c27	-0.13047849
68	0xbe70720c	-0.23481005
69	0x3db0c44e	0.08631192
70	0xbe30b610	-0.17256951
71	0xbe0735cd	-0.13204117
72	0xbe0a3e61	-0.13500358
73	0xbe2ea20e	-0.17054006
74	0x3c7e960b	0.015538703
75	0x3e708379	0.23487653
76	0x3c028f0e	0.007968677
77	0xbdd3bc65	-0.10338668
78	0x3cf118a6	0.029430699
79	0xbccf284c	-0.02528777
80	0x3e46d242	0.19416144
81	0xbd92e835	-0.07173196
82	0x3daa7dd1	0.08324779
83	0x3e304aa7	0.17215978
84	0xbd2f5531	-0.042805854
85	0xbda76242	-0.08173038
86	0x3d9d1551	0.076700814
87	0x3d9ad5a6	0.075602815
88	0x3e03172a	0.12801805
89	0x3d80165d	0.062542655
90	0x3dae03a1	0.08496786
91	0x3d628197	0.055299368
92	0x3d056f0d	0.03257661
93	0xbbc20b3c	-0.0059217494
94	0x3d7f9524	0.06239809
95	0x3daac531	0.083383925
96	0x3ddcc489	0.107796736
97	0xbc521bdd	-0.012824026
98	0xbc1a5ea7	-0.009421981
99	0x3bd5bd5e	0.0065228185
100	0x3e5ab439	0.21357812
101	0xbd3e07a3	-0.046394
102	0xbd7d262e	-0.06180399
103	0x3e1428e5	0.14468725
104	0x3d14dc7e	0.03634309
105	0xbcdf8a37	-0.027287586
106	0xbe13e713	-0.14443617
107	0x3dd552ac	0.10416159
108	0x3e1972a7	0.14985143
109	0x3d2e9b24	0.042628422
110	0xbdbe88aa	-0.0930341
111	0x3e010974	0.12601262
112	0x3dd56048	0.10418755
113	0x3da35c32	0.07976569
114	0x3d9e5532	0.077310935
115	0xbdcc0134	-0.09961167
116	0x3d179c10	0.037014067
117	0xbdbd8286	-0.09253411
118	0x3d587322	0.052844174
119	0x3df2ca5e	0.11855005
120	0x3d6f8b4a	0.058482446
121	0x3ac04660	0.0014669411
122	0xbdc54e39	-0.096340604
123	0x3d958250	0.07300246
124	0x3dac368b	0.08408841
125	0x3d7a3fcd	0.061096
126	0xbe1bcdc0	-0.15215206
127	0xbec9c7a2	-0.3941012
128	0xbebdad37	-0.37046215
129	0xbe2defd4	-0.16986018
130	0x3dc68dd9	0.09695024
131	0xbe5999de	-0.21250102
132	0xbe67a085	-0.22619827
133	0xbe15c794	-0.14626914
134	0xbd9165d6	-0.07099502
135	0xbe2524e9	-0.16127361
136	0xbe60dfab	-0.21960323
137	0xbe5ef7df	-0.21774243
138	0xbeac135a	-0.33608514
139	0xbe86f6e1	-0.2636023
140	0xbe863369	-0.26211098
141	0xbdf124bf	-0.11774587
142	0xbe3b7a9d	-0.18308492
143	0xbed1cfc7	-0.40978834
144	0xbe405036	-0.18780598
145	0xbe0ad798	-0.13558805
146	0xbdac7247	-0.08420234
147	0xbd85395f	-0.06505083
148	0xbddbd73e	-0.107344136
149	0xbda3d7b8	-0.080001295
150	0x3de1dead	0.110288
151	0x3dad97a0	0.08476186
152	0x3d9aac49	0.07552392
153	0x3c667741	0.014066518
154	0x3cd18f6b	0.025581082
155	0x3d0228b5	0.031777103
156	0xbd73234d	-0.059359837
157	0x3d90bb03	0.0706692
158	0x3e19cdb9	0.15019883
159	0x3d671ee3	0.05642594
160	0xbcc35455	-0.023843924
161	0x3c148ada	0.009066308
162	0xbb97b6f9	-0.0046299663
163	0x3d09911e	0.03358566
164	0x3d544d88	0.051831752
165	0xbc889a31	-0.016675087
166	0x3c816b30	0.015798181
167	0x3cf28565	0.029604623
168	0x3cef50fa	0.029213417
169	0x3db37df9	0.08764262
170	0x3dbe0940	0.09279108
171	0x3c9497de	0.018138822
172	0xbdb515be	-0.088420376
173	0x3d7fb5df	0.062429305
174	0x3de9e510	0.11420643
175	0x3e4987a3	0.19680648
176	0x3de8b663	0.113629125
177	0x3da6c59a	0.08143158
178	0x3de3f669	0.111309834
179	0xbb9dc3f7	-0.0048146206
180	0xbddcad7a	-0.107752755
181	0xbd92399f	-0.071398966
182	0xbcc0b2b7	-0.023522718
183	0xbc94cfc1	-0.018165471
184	0xbd2ae868	-0.041725546
185	0x3da013b0	0.07816255
186	0xbd4bf258	-0.049791664
187	0xbbd2c84d	-0.006432569
188	0xbccebd56	-0.025236767
189	0xbce564aa	-0.028002102
190	0x3dddf707	0.10838132
191	0xbe0a02cc	-0.1347763
192	0xbd214f70	-0.039382398
193	0x3e22a7ed	0.15884371
194	0x3c148c12	0.0090665985
195	0xbe2b7bfc	-0.16746515
196	0xbe907455	-0.28213754
197	0x3d0a0540	0.033696413
198	0x3de991d3	0.11404767
199	0x3d55004f	0.052002247
200	0xbb8c4dfa	-0.0042817565
201	0x3d5e62b2	0.054293342
202	0x3da8702c	0.0822452
203	0xbcc36608	-0.023852363
204	0xbdaa385b	-0.0831153
205	0x3ceddf08	0.029037014
206	0x3d79b117	0.0609599
207	0x3d7e518f	0.0620895
208	0xbe242c24	-0.16032463
209	0xbd688ec5	-0.05677678
210	0x3e3a5d19	0.18199576
211	0x3dbf1315	0.093298115
212	0xbcc4a153	-0.024002707
213	0xbdf3e0e3	-0.11908128
214	0xbd5fcbff	-0.054637905
215	0x3d2ba43c	0.041904673
216	0x3ddc0383	0.10742857
217	0x3cc8958d	0.024485374
218	0x3bce33ca	0.006292795
219	0xbde05250	-0.109532
220	0x3cba7647	0.022761477
221	0xbcdfb65f	-0.027308641
222	0x3c8a6aa5	0.016896555
223	0x3e02d99a	0.12778321
224	0x3de96ee9	0.113981076
225	0x3daa8ed6	0.08328025
226	0x3c98b020	0.01863867
227	0x3d62a541	0.05533338
228	0x3d108f75	0.03529306
229	0xbe537de6	-0.20653495
230	0x3ae2f2c4	0.0017314781
231	0xbd7b81f6	-0.061403237
232	0xbda540e5	-0.08069018
233	0xbdeeee6c	-0.11666569
234	0xbe15ecb1	-0.14641072
235	0x3e12d5ec	0.14339417
236	0xbc022309	-0.007942923
237	0xbe09cba1	-0.13456585
238	0xbe128f9c	-0.14312595
239	0xbdf0bdc7	-0.11754947
240	0x3d134b62	0.035960563
241	0xbe4e680c	-0.20156878
242	0xbc56910f	-0.013096108
243	0x3d103894	0.035210207
244	0x3ca258d0	0.01981774
245	0xbe498adc	-0.19681877
246	0xbe543ea5	-0.20727022
247	0x3d08341e	0.033252828
248	0x3cff328c	0.031152032
249	0x3d8eeb68	0.06978494
250	0xbd30ca80	-0.04316187
251	0xbea286b2	-0.3174339
252	0x3bb17a51	0.0054161926
253	0x3c98b030	0.0186387
254	0xbe040bbb	-0.128951
255	0x3c6999ca	0.014257858

conv.3.bias f4 [20]
0	0x3cac0789	0.020999687
1	0xbd3d5e38	-0.046232432
2	0x3c061ee4	0.008186076
3	0x3ce7d4fa	0.028299797
4	0xbca8e618	-0.02061753
5	0xbd0fa3d0	-0.035068333
6	0xbafc0be5	-0.0019229619
7	0xbd8baf2a	-0.06820519
8	0x3a2d629d	0.0006614121
9	0x3d2e9ef3	0.042632055
10	0xbd47cbc0	-0.048778296
11	0xbb14120c	-0.0022593765
12	0x3d3b99d3	0.045800995
13	0xbc375ae4	-0.011191104
14	0x3d4728eb	0.048623007
15	0x3cf858dc	0.030315809
16	0x3d170741	0.036872152
17	0xbd26530d	-0.040606547
18	0x3cbc4184	0.022980459
19	0x3d19b0f7	0.037522282

fc.1.weight f4 [50, 320]
0	0x3d43e850	0.047828972
1	0x3cc2a4e5	0.023760268
2	0x3dc5ddef	0.09661471
3	0xbd9b72fe	-0.075902924
4	0x3c37f658	0.0112281665
5	0xbd356752	-0.044287987
6	0xbe133e76	-0.14379296
7	0x3e0a42d1	0.13502051
8	0xbe04628e	-0.1292822
9	0xbd30ae4b	-0.04313497
10	0x3e124b69	0.14286579
11	0xbd6b77e7	-0.057487395
12	0x3dc49280	0.09598255
13	0x3e5c1c51	0.21495177
14	0x3d645019	0.05574045
15	0xbd5b9f53	-0.05361874
16	0x3d9406d0	0.07227862
17	0xbcd71de3	-0.026259368
18	0xbcf88df2	-0.030341122
19	0xbd49313d	-0.049119223
20	0x3e0c3db0	0.13695407
21	0x3db528d2	0.088456765
22	0x3c0d052b	0.008607189
23	0x3dcf059e	0.10108493
24	0xbdcfc40c	-0.10144815
25	0xbdc20033	-0.09472694
26	0xbd7903d7	-0.060794678
27	0xbcadde7e	-0.021224257
28	0xbdab7e79	-0.08373732
29	0x3d1c350e	0.038136534
30	0xbcbb9d42	-0.022902135
31	0x3d5f90e5	0.05458154
32	0xbddb3447	-0.107033305
33	0xbdf1cf36	-0.118071005
34	0xbdd3a35a	-0.10333891
35	0x3d644f39	0.055739615
36	0x3c0c9656	0.008580765
37	0x39af41fc	0.00033427763
38	0xbdbf976a	-0.09355052
39	0x3cfd42a1	0.03091556
40	0xbda0579c	-0.0782921
41	0xbd629c86	-0.055325054
42	0x3de9a6a0	0.11408734
43	0x3e11132c	0.1416747
44	0xbe363aa2	-0.17795804
45	0xbe3a491c	-0.18191952
46	0xbcd3fac1	-0.025876405
47	0xbc5166f8	-0.012780897
48	0xbe0ef429	-0.13960327
49	0xbbb5cbe2	-0.0055479864
50	0x3d8245a4	0.06360939
51	0x3dc4c834	0.09608498
52	0x3d77ef1f	0.060530778
53	0xbd2aa251	-0.041658703
54	0x3d0a6c33	0.033794593
55	0x3d6e30b9	0.058151934
56	0x3e0ba765	0.13638075
57	0xbc68cbbf	-0.014208733
58	0xbe205322	-0.15656713
59	0xbdaf290b	-0.0855275
60	0x3da234a4	0.07920197
61	0xbc4ad5f6	-0.012380114
62	0xbd1271ee	-0.035753183
63	0x3d021827	0.031761315
64	0x3c806de6	0.015677404
65	0xbc08cd2b	-0.008349697
66	0xbc9d03b3	-0.019166803
67	0x3d8cb4a5	0.06870393
68	0x3da1a4e2	0.07892777
69	0x3b3b2907	0.002855839
70	0x3949061a	0.00019171127
71	0x3d73c534	0.05951424
72	0x3dd44b67	0.10365944
73	0xba196dad	-0.000585283
74	0x3cdaa4c7	0.0266899
75	0x3d1e70fd	0.038681973
76	0xbd9d1626	-0.0767024
77	0xbe108e28	-0.14116728
78	0xbe08da19	-0.13364448
79	0xbbe1c6e6	-0.0068901656
80	0x3d2a3c98	0.041561693
81	0xbcdbe53f	-0.026842711
82	0xbbf72fcd	-0.00754354
83	0x3d981947	0.07426696
84	0x3cf0706b	0.02935048
85	0xbcfcf5fd	-0.030879015
86	0x3d9933aa	0.07480557
87	0x3de6d1dd	0.11270497
88	0x3e30f977	0.17282663
89	0xbd59fb84	-0.05321838
90	0x3dab8b47	0.083761744
91	0x3c63c217	0.013901255
92	0x3e0b5088	0.13604939
93	0x3c87eb4f	0.016591696
94	0xbe243867	-0.16037141
95	0xbe20e427	-0.15712033
96	0x3d02ae8a	0.031904735
97	0x3ba22fe0	0.004949555
98	0xbd0c3865	-0.03423347
99	0xbd2a9d3f	-0.041653868
100	0x3dc8d3aa	0.09805997
101	0x3cc1ccf3	0.023657298
102	0x3d38a350	0.045077622
103	0xbdb8566d	-0.090008594
104	0xbc27e8d5	-0.010248383
105	0xbd016be2	-0.031597026
106	0xbd0b9930	-0.034081638
107	0xbe0693bc	-0.13142294
108	0xbdd32e62	-0.10311581
109	0xbdf4de65	-0.11956481
110	0xbe29e341	-0.16590597
111	0xbe18d552	-0.14925125
112	0x3dbc9030	0.09207189
113	0x3dd0cc1f	0.10195183
114	0x3c319d3a	0.010840708
115	0x3d8c9d94	0.06865993
116	0x3e0a3566	0.13496932
117	0x3e0e8e35	0.13921435
118	0xbad86c6f	-0.0016511808
119	0xbd12586a	-0.03572885
120	0x3d285901	0.041100506
121	0xbc9061a8	-0.017624691
122	0xbd86d27c	-0.065831155
123	0xbcd50785	-0.026004562
124	0xbc1526df	-0.009103506
125	0xbcb0823d	-0.021546477
126	0xbd28b4cb	-0.041188043
127	0xbd581e1a	-0.052763082
128	0x3c1b1520	0.009465486
129	0x3d9612c1	0.07327796
130	0xbd2aa9a5	-0.041665692
131	0x3d984865	0.07435683
132	0x3e1fbff0	0.15600562
133	0x3e57c74b	0.21072118
134	0xbd87a809	-0.06623847
135	0x3b773cc3	0.0037725426
136	0x3d45504c	0.04817228
137	0x3e088734	0.13332826
138	0xbd3aba1d	-0.045587648
139	0xbcb20ffb	-0.021736136
140	0xbd77c748	-0.060492784
141	0xbd5ba162	-0.053620704
142	0xbc840e66	-0.016120147
143	0xbd4e85f0	-0.0504207
144	0xbc34ac43	-0.0110273985
145	0xbd907bc4	-0.070548564
146	0xbd000181	-0.031251434
147	0x3d3c9a3f	0.046045538
148	0x3d03cb33	0.032176208
149	0x3b9495ec	0.0045344736
150	0x3d631294	0.05543764
151	0x3d8abfa7	0.06774836
152	0x3d8bc2e0	0.06824279
153	0xbcda3025	-0.026634285
154	0x3dbc9886	0.09208779
155	0x3d983d24	0.07433537
156	0xbd775f7b	-0.06039379
157	0xbcfbdb38	-0.03074418
158	0x3dfb8672	0.12281503
159	0x3dd47efd	0.103757836
160	0x3dbe21ae	0.09283768
161	0x3d92953c	0.071573704
162	0x3bbcff57	0.0057677436
163	0x3dc2df7d	0.09515283
164	0x3de3179d	0.11088488
165	0x3dda1648	0.10648781
166	0xbd50b6d4	-0.05095561
167	0x3de29f4a	0.11065538
168	0xbd1faa40	-0.038980722
169	0x3d742f34	0.05961533
170	0x3da08f05	0.07839779
171	0x3e015938	0.1263169
172	0xbd208f4b	-0.039199155
173	0x3c96bee1	0.018401565
174	0x3d6041b8	0.054750174
175	0xbc9af7f4	-0.018917061
176	0x3c8e8745	0.017398486
177	0xbde2b02c	-0.11068758
178	0xbda00cf6	-0.07814972
179	0xbddc78ca	-0.10765226
180	0xbd981875	-0.0742654
181	0x3e085da2	0.13316968
182	0xbd7bdea0	-0.06149161
183	0xbdd95042	-0.10611011
184	0xbe039689	-0.12850393
185	0xbd5989a2	-0.053109773
186	0xbd38794f	-0.045037564
187	0x3d251850	0.04030639
188	0xbd8d7fce	-0.069091424
189	0x3cae0876	0.021244269
190	0xbd82fb10	-0.063955426
191	0x3d827346	0.06369643
192	0x3dd66e2d	0.10470233
193	0xbc6a6840	-0.014307082
194	0x3d6d1b7f	0.05788755
195	0x3e20dfc7	0.15710364
196	0xbcff7e15	-0.03118805
197	0xbd54e529	-0.051976357
198	0xbb96ed9b	-0.0046059615
199	0x3de3114e	0.11087285
200	0x3dbb1b9e	0.09136127
201	0x3bfbcb54	0.0076841507
202	0xbcc73178	-0.02431558
203	0x3b8048e6	0.00391494
204	0x3e339a0f	0.17539237
205	0x3dbfdf5f	0.093687765
206	0xbe14042a	-0.14454713
207	0xbdb3a03d	-0.087707974
208	0xbc540f1c	-0.0129430555
209	0x3ca5f2a5	0.020257303
210	0x3dbf89c4	0.093524486
211	0x3d4f37c1	0.05059028
212	0x3e1d797b	0.15378372
213	0x3d9a54c1	0.07535697
214	0x3c2ce2b1	0.010552094
215	0x3dda87ff	0.106704704
216	0xbcf4e532	-0.029894445
217	0xbcd00608	-0.0253935
218	0xbe23bc82	-0.15989879
219	0xbe121d56	-0.14269003
220	0x3d04e84e	0.032448106
221	0xbd29cb46	-0.041453622
222	0xbdb2d8da	-0.087327674
223	0xbe2d348d	-0.16914578
224	0x3d9420a9	0.07232792
225	0x3d02a663	0.03189696
226	0x3a9167ad	0.001109352
227	0x3cba678b	0.022754451
228	0x3e0e9a58	0.13926065
229	0xbd55899b	-0.052133184
230	0x3c8b1d84	0.016981848
231	0x3dfe87ec	0.12428269
232	0xbc3526cc	-0.011056613
233	0xbd861eb0	-0.06548822
234	0x3d2d5219	0.042314623
235	0xbc7a8aaa	-0.015291849
236	0x3e0ffe28	0.14061797
237	0x3e1fd64b	0.1560909
238	0x3e5ef6e4	0.21773869
239	0x3e0480f6	0.1293982
240	0xbdbdcdab	-0.09267744
241	0xbd7bf561	-0.06151331
242	0xbd7d8d29	-0.0619022
243	0xbdaa1b15	-0.08305947
244	0x3d23bfaf	0.039977726
245	0xbc810530	-0.015749544
246	0x3d4d22b3	0.05008192
247	0x3c9abefd	0.018889898
248	0x3dacfd5d	0.08446763
249	0x3996eefb	0.00028788284
250	0x3dee4f25	0.11636189
251	0x3d76c6d2	0.060248204
252	0x3cede37a	0.029039133
253	0x3c9b40a2	0.018951718
254	0x3c69f28d	0.01427902
255	0x3ca6d911	0.020367177

fc.1.bias f4 [50]
0	0x3c0733c5	0.008252089
1	0xbc7df2f3	-0.015499818
2	0xbbfda244	-0.007740291
3	0xbd351163	-0.044206034
4	0x3d412967	0.047158625
5	0xbd9094d0	-0.07059634
6	0xbd3c409f	-0.045960065
7	0x3cb64b28	0.022252634
8	0xbc22ad60	-0.009929031
9	0x3c984162	0.018585864
10	0x3bef23a9	0.007297952
11	0x3d7d8581	0.061894897
12	0x3d3631f5	0.044481236
13	0xbd93c73a	-0.07215734
14	0xbd5d7abf	-0.054072138
15	0x3d67a653	0.056555104
16	0xbd8e2959	-0.0694148
17	0xbc2e8bcb	-0.010653446
18	0x3ceb0113	0.028687036
19	0xbd451ed5	-0.048125107
20	0xbd7a78cb	-0.061150353
21	0xbd9f9e93	-0.077939175
22	0x3d493ec0	0.04913211
23	0x3d47b83e	0.04875969
24	0xbd26c16e	-0.040711813
25	0x3bf332de	0.0074218353
26	0xbc675070	-0.014118299
27	0xbc46959e	-0.012120632
28	0x3ca2626e	0.019822326
29	0xbc9bb1ff	-0.019005774
30	0xbc587448	-0.013211317
31	0xbc672fce	-0.014110519
32	0x3c627dd5	0.013823946
33	0xbd33bf60	-0.04388368
34	0x3b0faa28	0.002192149
35	0x3d4c16ca	0.04982642
36	0x3c2cd1cd	0.010548067
37	0xbcdebcf8	-0.027189717
38	0xbd0a69e2	-0.033792384
39	0xbc16fc99	-0.009215497
40	0xbab5915e	-0.0013852527
41	0xbc62c857	-0.01384171
42	0xbd75116c	-0.059831068
43	0xbd267c73	-0.040646028
44	0x3dbb4441	0.09143878
45	0xb917f331	-0.00014491078
46	0xbd1730d3	-0.036911797
47	0x3c22e37a	0.00994193
48	0x3c8b4cfa	0.017004479
49	0xbc3476e6	-0.011014676

fc.4.weight f4 [10, 50]
0	0xbe38b7df	-0.18038891
1	0x3dca283c	0.09870955
2	0x3e1e74d8	0.1547426
3	0xbd909636	-0.070599005
4	0x3d917210	0.07101834
5	0x3c8f7e4d	0.01751628
6	0x3e291305	0.16511162
7	0x3ced3bca	0.028959174
8	0xbe998bf8	-0.299896
9	0x3e3c7675	0.18404563
10	0x3de736c8	0.112897456
11	0xbe281b04	-0.16416556
12	0xbe3f6e42	-0.18694404
13	0xbe8611ea	-0.26185542
14	0x3e027cd5	0.12742932
15	0x3de81365	0.11331824
16	0xbd968d31	-0.07351149
17	0xbe5c7f16	-0.21532854
18	0xbe05dd3d	-0.13072677
19	0x3da36b77	0.07979482
20	0xbd88c189	-0.06677539
21	0xbeac548f	-0.33658263
22	0xbe35ff2b	-0.1777312
23	0xbe77d28a	-0.24201408
24	0x3da4c5fa	0.080455735
25	0xbe4bd5ed	-0.19905825
26	0x3d27c9db	0.04096399
27	0x3e0f383d	0.13986297
28	0xbe807cc6	-0.25095195
29	0x3dbd18c0	0.09233236
30	0xbddc5fc1	-0.10760451
31	0xbe28e5fe	-0.16493985
32	0xbd98d4ce	-0.07462464
33	0x3d112187	0.035432365
34	0x3e01233a	0.12611094
35	0xbec2d057	-0.38049576
36	0x3e30afd7	0.17254578
37	0xbe4ba3f2	-0.19886759
38	0x3e1bec9a	0.15226975
39	0xbb56942b	-0.0032742124
40	0xbe2a52f6	-0.1663321
41	0xbea8315d	-0.3285016
42	0xbdf7a1ab	-0.120913826
43	0xbe0004f7	-0.12501894
44	0x3e451166	0.19244918
45	0xbe2d380d	-0.16915913
46	0xbe36caa8	-0.17850745
47	0x3e40f4cc	0.18843383
48	0xbe82907e	-0.25500864
49	0xbe0c62c9	-0.13709559
50	0x3dcb6daa	0.09933026
51	0xbe3a147a	-0.18171874
52	0xbea899bf	-0.329298
53	0xbe78b821	-0.2428899
54	0x3d318267	0.043337252
55	0xbd28d803	-0.04122163
56	0xbe3e5675	-0.18587668
57	0x3df91adb	0.121633254
58	0x3e2ad7e7	0.16683923
59	0x3e233c49	0.15940966
60	0xbaf37096	-0.0018572982
61	0x3dcffdad	0.10155807
62	0x3e4778c1	0.19479658
63	0x3dd3d7fb	0.103439294
64	0x3d91b3dc	0.071143836
65	0xbe6119ac	-0.2198245
66	0xbee82277	-0.45338795
67	0x3df80aea	0.12111457
68	0x3e6dfddf	0.23241375
69	0x3dc9ebf8	0.098594606
70	0xbe103271	-0.14081742
71	0x3e18ef06	0.1493493
72	0x3d98b0bf	0.07455587
73	0x3e361b3f	0.17783831
74	0xbde336e0	-0.11094451
75	0xbe511d82	-0.20421413
76	0xbe04f7c4	-0.1298514
77	0xbe1ac130	-0.15112758
78	0x3daed1c6	0.08536105
79	0xbe76aacb	-0.2408859
80	0xbe8d36de	-0.27580923
81	0xbe1ba7e3	-0.15200762
82	0x3e1d6f7c	0.15374559
83	0xbdca8bcb	-0.09889945
84	0xbe4c8a26	-0.19974574
85	0xbe19447e	-0.14967534
86	0x3e31beab	0.1735789
87	0xbec4091c	-0.382882
88	0xbe271ec8	-0.16320336
89	0x3d23beb0	0.039976776
90	0x3e42c402	0.19020084
91	0xbde56c1c	-0.11202261
92	0x3bcaa561	0.0061842655
93	0xbe15e2de	-0.14637324
94	0x3e21a8c1	0.15787031
95	0xbe8973dd	-0.2684621
96	0xbd6fa56f	-0.05850738
97	0xbdd95af7	-0.10613053
98	0xbe45b373	-0.19306736
99	0xbdeb6424	-0.1149371
100	0xbe193b04	-0.14963919
101	0x3dec6a31	0.11543692
102	0x3d633435	0.05546971
103	0xbe16a1f6	-0.1471022
104	0x3c0288e7	0.00796721
105	0xbe1ad017	-0.15118442
106	0x3e0ae4ec	0.1356389
107	0xbc9b02f9	-0.018922316
108	0x3e14f2e2	0.14545777
109	0xbe704c8a	-0.23466697
110	0xbe831fb8	-0.25610137
111	0xbe67252f	-0.22572778
112	0x3e22a948	0.15884888
113	0x3ddea7ad	0.10871825
114	0xbea925c4	-0.33036625
115	0x3da30007	0.079589896
116	0xbdb290c7	-0.0871902
117	0xbd8cba57	-0.06871479
118	0x3ce83f1c	0.028350405
119	0x3d86afbd	0.06576488
120	0xbde386ad	-0.11109672
121	0xbea92dd2	-0.3304277
122	0x3e132b0b	0.14371888
123	0xbe675461	-0.22590782
124	0x3d4c10be	0.049820654
125	0x3e24561c	0.16048473
126	0xbc0c369c	-0.008557942
127	0x3e164d8e	0.14678022
128	0x3dcf7b5f	0.10130953
129	0xbd869772	-0.06571855
130	0xbe56d287	-0.20978747
131	0x3e0a0189	0.13477148
132	0xbe5bc792	-0.21462849
133	0x3d0d115f	0.034440394
134	0x3dbfa5b6	0.09357779
135	0xbdde5109	-0.108553
136	0xbddf7814	-0.10911575
137	0x3dddc96c	0.10829434
138	0xbe20b3d4	-0.15693599
139	0xbd37698f	-0.044778403
140	0x3e41b95a	0.18918362
141	0x3d0d955d	0.034566272
142	0x3ddbf0b2	0.10739268
143	0x3dbcdcb7	0.092217855
144	0xbe52183e	-0.2051706
145	0xbe88c97a	-0.26716214
146	0xbce05d3d	-0.02738821
147	0x3e1a4247	0.15064345
148	0xbe6bf18d	-0.23041363
149	0xbe389e63	-0.1802917
150	0xbe7b063d	-0.24514098
151	0x3d960530	0.07325208
152	0x3e041f27	0.12902509
153	0x3e2431fb	0.16034691
154	0x3df58931	0.11989058
155	0xbd9565ae	-0.072947845
156	0x3d346822	0.04404462
157	0x3e07d7de	0.1326594
158	0x3ccb61d5	0.024826923
159	0xbe2f6734	-0.17129213
160	0xbea5fa8c	-0.32417715
161	0x3dfa557c	0.12223336
162	0xbdb96e27	-0.09054213
163	0xbdb08ada	-0.08620234
164	0xbe06c677	-0.13161646
165	0xbe2b729a	-0.16742936
166	0xbdd0219d	-0.10162661
167	0x3e282eb8	0.16424072
168	0xbeb72dc6	-0.3577711
169	0xbe91c7aa	-0.28472644
170	0x3cf7e546	0.030260693
171	0x3e031981	0.12802698
172	0x3d35f241	0.044420484
173	0xbe35c4d5	-0.17750867
174	0x3d962067	0.07330399
175	0x3e488ecf	0.19585727
176	0xbdb2f9d7	-0.087390594
177	0x3e1caa35	0.15299304
178	0x3dcdb2d7	0.100438766
179	0xbea583fb	-0.32327256
180	0xbe450176	-0.19238839
181	0x3e172bc2	0.14762786
182	0x3e312966	0.17300949
183	0x3d382f35	0.044966895
184	0xbe34d63f	-0.17659853
185	0x3e20c549	0.15700258
186	0x3e3ad6bc	0.18245977
187	0x3d672e95	0.05644091
188	0xbe18b1d9	-0.14911593
189	0x3c8e5f96	0.017379563
190	0xbe83569b	-0.25652012
191	0x3df208aa	0.11818059
192	0xbc540cd5	-0.0129425125
193	0x3e0d715c	0.13812774
194	0xbe3d1e19	-0.18468513
195	0xbe3e8a13	-0.18607359
196	0xbe1872b8	-0.14887512
197	0xbe1cb9a2	-0.15305188
198	0xbd2eeb4b	-0.04270486
199	0xbe45eb81	-0.19328119
200	0x3e229d85	0.15880401
201	0x3d18c7c8	0.0372999
202	0xbec72a7d	-0.38899603
203	0xbe6d6317	-0.23182331
204	0x3b23e492	0.0025008065
205	0x3d09e178	0.03366229
206	0xbe6c9256	-0.23102698
207	0x3dc3fc30	0.09569585
208	0x3e2a9670	0.1665895
209	0x3e4016b9	0.18758668
210	0xbdb00b5d	-0.085959174
211	0xbea5d351	-0.32387784
212	0xbda7c84c	-0.081925005
213	0xbdfe8e2b	-0.1242946
214	0xbea6f51a	-0.32608873
215	0xbe8c4673	-0.27397498
216	0x3dc9ceaf	0.09853875
217	0xbcdb528b	-0.026772758
218	0xbd9cadb9	-0.076503225
219	0x3ddede21	0.108822115
220	0xbdb911da	-0.09036608
221	0x3e0e552f	0.13899682
222	0xbe99d62e	-0.3004622
223	0xbe13fb0b	-0.14451234
224	0xbcae9a42	-0.02131379
225	0xbed7f4f8	-0.42179084
226	0x3e15669c	0.14589924
227	0xbea06118	-0.31324077
228	0xbe6c9c8f	-0.23106597
229	0x3df7a7bd	0.120925404
230	0x3e332884	0.17495924
231	0xbdb791ba	-0.08963342
232	0xbe32cfff	-0.17462157
233	0x3dae70da	0.085176185
234	0xbd87e0f0	-0.066347
235	0xbe8fccbf	-0.28085896
236	0xbe0292db	-0.12751333
237	0xbe087898	-0.13327253
238	0xbdf48454	-0.11939302
239	0x3baded40	0.0053078234
240	0x3e318205	0.17334755
241	0x3e051232	0.12995222
242	0xbdeaefab	-0.11471494
243	0xbea261fa	-0.31715375
244	0xbd9705be	-0.07374142
245	0x3dfad531	0.12247694
246	0xbe3b3a88	-0.18284047
247	0xbdc9a2fb	-0.09845539
248	0x3e2ca45e	0.16859576
249	0xbb026833	-0.0019898533
250	0xbe7a3811	-0.2443545
251	0xbe79ba89	-0.24387564
252	0x3dcf6775	0.10127155
253	0x3e2952c7	0.16535483
254	0x3d999cbb	0.07500597
255	0xbd97157a	-0.07377143

fc.4.bias f4 [10]
0	0x3e5aa874	0.21353322
1	0x3d00e00b	0.031463664
2	0xbe2ffbda	-0.17185917
3	0xbe70a577	-0.2350062
4	0x3e8580fb	0.26074967
5	0xbe98e5ba	-0.29862767
6	0xbde13c72	-0.10997857
7	0x3e161863	0.1465774
8	0x3d2a8408	0.04162982
9	0x3dc3e0c5	0.09564356
