mnist_model.pth (torch, 90608 bytes, 8 tensors)

conv.0.weight f4 [10, 1, 5, 5]
-0.21821244 -0.19535422 -0.19540414 -0.008537767 -0.12940563 -0.026549594 -0.068302885 -0.1305023
-0.08107239 -0.051895067 0.06404938 -0.21983984 -0.1113848 -0.21774876 -0.14013371 0.23028286
0.21064286 -0.06900405 -0.11116365 -0.22540817 0.10209511 0.034479372 0.23601209 0.14928637
-0.06427753 -0.05816735 0.067791164 0.20785703 0.5130406 0.49729577 0.022457568 0.35643664
0.34021324 0.3714129 0.47598413 0.005427431 -0.22205774 -0.3582983 -0.3459279 -0.06320877
-0.17353415 -0.3306612 -0.12312386 -0.38500986 -0.26215377 -0.14034802 -0.2799724 -0.18411712
0.0068824 0.053505573 0.33784646 0.3862937 0.36336014 0.15904714 0.011746448 -0.05097569
-0.10602686 -0.07599965 -0.013166506 0.022294106 -0.23382822 -0.043726776 -0.09739787 -0.06301185
-0.22397211 0.0032327645 -0.1747783 -0.27694908 -0.15582477 -0.13697235 -0.09582934 -0.067681715
0.004413107 -0.050485644 0.06588094 -0.26640084 -0.23133951 -0.19457628 -0.076461256 -0.031612612
-0.12251476 -0.070709966 -0.06263862 -0.25615844 -0.43199953 0.25890228 -0.0842122 -0.2741883
-0.1048823 -0.34206685 0.09601726 0.33728462 0.2257901 0.25949654 0.41239113 0.08107991
0.2940866 0.2827825 0.30979243 0.28298047 0.14979698 0.008161242 -0.08291751 -0.3425106
-0.019944696 0.0009030037 -0.2950663 -0.37027302 -0.1974642 0.2924829 -0.15525176 -0.30699173
-0.14754125 0.39710844 0.5012642 -0.42278928 -0.024938377 0.45390055 0.27330643 -0.07798792
0.24420863 0.5301643 0.31186113 0.13702528 -0.113903046 0.05048076 -0.017550947 0.20182817
-0.07599098 0.10800166 0.15742967 0.2410677 0.235522 -0.30837142 -0.32501826 0.1423787
0.5113478 0.046968732 -0.33809525 -0.37788957 0.41155714 0.3868218 -0.23762363 -0.23254286
-0.3994804 0.21829648 0.015924562 0.10020623 -0.1323964 -0.14159204 0.24138361 0.16651922
0.33776602 -0.080544844 -0.5697562 0.107810676 0.42185447 0.39537048 -0.012827327 -0.1119099
-0.33100215 -0.08307001 0.68537915 0.23017812 -0.014886374 -0.13739856 -0.10727996 0.43466997
0.18567127 0.1894703 -0.3167945 -0.08726969 0.08636296 0.40311554 0.25442007 0.10055043
0.33327988 0.31762972 -0.39353558 -0.5436621 -0.27016228 0.13279338 0.46704537 0.50444174
-0.3666017 -0.2963172 -0.082423784 0.010053675 0.49525434 0.18800928 -0.12089335 -0.12616494
-0.25894243 -0.136327 0.36489788 0.0035813923 0.026782472 -0.022211969 -0.014266812 0.15801655
-0.076326475 -0.18501785 -0.2654156 -0.12588453 0.27841395 -0.16102733 -0.17145509 -0.10965093
0.054908693 0.3591833 -0.17157581 -0.08170088 -0.24973579 0.14527953 0.3623181 -0.2389711
-0.1560816 -0.11586674 0.29938704 0.37107405 0.043940287 -0.16362193 0.09862707 0.072474964
0.35543874 0.07421794 -0.13929515 0.27292833 0.2628796 0.071505405 -0.02032988 -0.05352188
0.0038504936 0.11563982 0.1181993 -0.36848244 -0.21509069 0.09857888 0.16406325 0.24802263
-0.056476753 -0.2107238 0.05251048 0.46523097 -0.071655735 -0.1655643 -0.19652349 -0.008374897
0.4528464 0.0917609
00000000: 1573 5fbe f00a 48be 0618 48be fee1 0bbc
00000010: e982 04be 897e d9bc 62e2 8bbd 65a2 05be
00000020: 4809 a6bd ec8f 54bd 522c 833d b21d 61be
00000030: b71d e4bd 88f9 5ebe 367f 0fbe 45cf 6b3e
00000040: c3b2 573e ff51 8dbd c5a9 e3bd 66d1 66be
00000050: 3e17 d13d 3e3a 0d3d 27ad 713e 87de 183e
00000060: f0a3 83bd e340 6ebd 18d6 8a3d 79d8 543e
00000070: a156 033f 8d9d fe3e eff8 b73c dd7e b63e
00000080: 6e30 ae3e d529 be3e 31b4 f33e 97d8 b13b
00000090: 1b63 63be e072 b7be 761d b1be 9973 81bd
000000a0: f0b2 31be 6d4c a9be 5d28 fcbd 0320 c5be
000000b0: 0539 86be 64b7 0fbe 8b58 8fbe 3389 3cbe
000000c0: c185 e13b a928 5b3d 36fa ac3e 4ac8 c53e
000000d0: 570a ba3e 41dd 223e 2d74 403c e3cb 50bd
000000e0: 9c24 d9bd b4a5 9bbd 54b8 57bc 21a2 b63c
000000f0: aa70 6fbe d91a 33bd 8978 c7bd 5b0c 81bd
00000100: f258 65be cadc 533b 15f9 32be 45cc 8dbe
00000110: 8790 1fbe 7b42 0cbe 2c42 c4bd b69c 8abd
00000120: d39b 903b 09ca 4ebd 96ec 863d b165 88be
00000130: 44e4 6cbe 013f 47be b897 9cbd 3a7c 01bd
00000140: 05e9 fabd 63d0 90bd ad48 80bd 3327 83be
00000150: 0b2f ddbe d78e 843e 7277 acbd 6962 8cbe
00000160: 88cc d6bd 6323 afbe b2a4 c43d 92b0 ac3e
00000170: 8535 673e bbdc 843e ee24 d33e 390d a63d
00000180: 8592 963e dec8 903e 1d9d 9e3e d1e2 903e
00000190: 6164 193e bbb6 053c a8d0 a9bd 8d5d afbe
000001a0: 0f63 a3bc 8db7 6c3a ee12 97be 6d94 bdbe
000001b0: 0e34 4abe 52c0 953e 51fa 1ebe 052e 9dbe
000001c0: 0e15 17be cc51 cb3e da52 003f d677 d8be
000001d0: 914b ccbc a765 e83e d2ee 8b3e 21b8 9fbd
000001e0: d411 7a3e d9b8 073f 43ac 9f3e 5b50 0c3e
000001f0: 0046 e9bd eac4 4e3d 01c7 8fbc 0bac 4e3e
00000200: 29a1 9bbd f92f dd3d 3e35 213e 73da 763e
00000210: ae2c 713e dce2 9dbe cb68 a6be b9cb 113e
00000220: b0e7 023f 4962 403d d21a adbe be7a c1be
00000230: 9eb7 d23e 820d c63e 9c53 73be b71f 6ebe
00000240: b288 ccbe 1d89 5f3e 3a74 823c ed38 cd3d
00000250: ec92 07be 81fd 10be 442d 773e 0484 2a3e
00000260: abef ac3e b2f4 a4bd 8bdb 11bf d8cb dc3d
00000270: 4ffd d73e 006e ca3e b529 52bc 0531 e5bd
00000280: 1d79 a9be 9c20 aabd 0275 2f3f d0b3 6b3e
00000290: fae5 73bc 35b2 0cbe 98b5 dbbd 108d de3e
000002a0: 9c20 3e3e 8104 423e e432 a2be 74ba b2bd
000002b0: 10df b03d 2965 ce3e 5943 823e 62ed cd3d
000002c0: a9a3 aa3e 5da0 a23e 7f7d c9be 702d 0bbf
000002d0: b652 8abe fdfa 073e 9220 ef3e 1823 013f
000002e0: 38b3 bbbe e3b6 97be cdcd a8bd 2bb8 243c
000002f0: fa91 fd3e 8185 403e ef96 f7bd 6231 01be
00000300: 1a94 84be 4e99 0bbe e5d3 ba3e cbb5 6a3b
00000310: ea66 db3c e0f5 b5bc 59bf 69bc 17cf 213e
00000320: 0e51 9cbd 5275 3dbe 8ee4 87be e0e7 00be
00000330: 468c 8e3e 59e4 24be ec91 2fbe ab90 e0bd
00000340: f0e7 603d e0e6 b73e 92b1 2fbe ca52 a7bd
00000350: bdba 7fbe 28c4 143e c281 b93e d7b4 74be
00000360: dbd3 1fbe 8b4b edbd 4249 993e 6bfd bd3e
00000370: bbfa 333d 828c 27be fdfc c93d c16d 943d
00000380: 11fc b53e 93ff 973d 63a3 0ebe 43bd 8b3e
00000390: 2898 863e 6d71 923d d98a a6bc c239 5bbd
000003a0: 9058 7c3b 92d4 ec3d 7912 f23d bba9 bcbe
000003b0: bc40 5cbe b9e3 c93d 3200 283e a5f9 7d3e
000003c0: 2b54 67bd fbc7 57be 3b15 573d c132 ee3e
000003d0: 3ec0 92bd b089 29be 743d 49be dd36 09bc
000003e0: 7cdb e73e 24ed bb3d

conv.0.bias f4 [10]
-0.38127777 -0.10570806 -0.0113164075 0.14363673 -0.008147745 0.07630064 0.024460727 -0.13026613
-0.070886075 0.0052261576
00000000: d736 c3be 787d d8bd 7468 39bc 8215 133e
00000010: 1f7e 05bc 8343 9c3d dd61 c83c 7c64 05be
00000020: b82c 91bd 3040 ab3b

conv.3.weight f4 [20, 10, 5, 5]
-0.02125687 -0.036578957 0.012633123 -0.021609614 -0.048527192 0.087041534 -0.040811144 0.00010383258
-0.096682265 -0.015022897 -0.0013178926 -0.005512489 -0.065083876 -0.014505697 2.3198401e-05 -0.021249123
-0.038489774 -0.106178 -0.019045167 -0.0916381 0.06655772 -0.07702506 -0.17109303 -0.18296963
0.005262638 0.030845717 0.062304057 0.008536855 0.09328136 0.08546528 -0.019971097 0.014282124
-0.09073601 0.09283458 0.0025135004 -0.1404353 -0.08966904 -0.1481847 0.03154743 -0.14332248
0.028156567 0.029142568 0.058463544 0.118227325 0.07822777 0.059574064 0.107726775 0.27769
0.2497576 0.12573178 0.014965247 0.02968581 -0.022315983 -0.05747039 -0.017830638 0.055376045
0.022159455 0.04393581 -0.027227065 -0.07146507 -0.08819012 -0.08747079 -0.064578764 -0.08054816
-0.046339463 -0.023973862 -0.21197575 -0.21161811 -0.044523746 0.02420218 -0.06376267 -0.11193223
-0.039548796 -0.020720672 0.014515341 0.027442547 -0.049855623 -0.007567131 0.075088605 0.057832163
0.009008522 -0.0321666 -0.13552772 -0.10090164 -0.05202691 -0.12300807 -0.015224274 0.06476863
-0.009380731 -0.09797315 -0.07683518 0.07621765 0.17861588 0.13909702 0.07152573 0.009565684
-0.04303567 0.020132609 -0.015649607 -0.070475124 0.047851633 0.13673757 0.12978512 0.100953795
0.07736221 0.033352453 -0.0004630881 0.044860244 0.102422 -0.04446914 -0.0061519523 -0.021886222
0.00466789 0.056640964 0.0068472438 -0.12946092 -0.2369634 -0.099353 0.103771016 0.1688098
-0.022604652 -0.12456336 -0.09649351 -0.0028124296 0.07740658 0.049836814 -0.030986302 -0.007300451
0.055915873 0.06266671 0.1546624 -0.034130674 0.04924122 -0.12027447 0.0001696297 0.018941155
-0.00855805 0.033753745 -0.10634039 -0.006919409 -0.07522616 -0.08713568 -0.06866057 -0.050511956
0.06786425 -0.14856818 -0.18670146 -0.18761684 -0.08024148 0.016645443 -0.25175333 -0.14094557
-0.18431547 -0.05661063 -0.07833088 -0.13060242 -0.1442762 -0.21785527 -0.09380542 -0.002677244
-0.013261635 0.084991604 -0.016743705 -0.021573683 0.09783927 0.12612475 0.25434455 0.1457704
-0.025409399 -0.09256507 -0.027175456 0.0746426 0.08144397 -0.057520952 -0.12898603 -0.06321426
-0.050422724 -0.0006887648 0.13861243 0.019572666 0.054989006 0.052482206 -0.06873843 0.14486505
0.16871336 0.10775564 0.18252498 0.1008446 0.15454221 0.20568788 0.1819951 0.23847768
0.26794645 0.23672897 0.053705372 0.13591197 0.20404315 0.2983044 0.16451417 -0.055130366
-0.011707107 0.0094231125 -0.026012933 0.07189848 -0.0014128351 -0.031145861 0.008814508 -0.0023479005
0.03536745 0.008856839 -0.0053256545 0.00010503193 -0.12593563 -0.018684056 0.04049094 -0.051862936
0.0034182328 -0.09587913 -0.03486194 -0.07136394 -0.03779859 -0.10414262 -0.2427881 -0.19481692
-0.26141366 -0.13431343 -0.0030301565 0.0018247181 -0.0055539636 0.04181456 -0.115500405 0.09483456
-0.022589218 0.0341366 0.021223431 0.06401697 0.13657287 -0.051804572 0.014115929 0.06295517
0.02576096 0.07741813 -0.081913754 -0.07636501 -0.13036254 -0.1472859 -0.09515258 -0.11349508
-0.110301785 -0.20174985 -0.057439175 0.0011085427 -0.1220813 -0.06872811 -0.011826775 -0.0065997993
00000000: e322 aebc d1d3 15bd 29fb 4e3c a506 b1bc
00000010: 73c4 46bd d542 b23d 9629 27bd b1c0 d938
00000020: 5a01 c6bd 9922 76bc 23bd acba 1ca2 b4bb
00000030: b24a 85bd 4ea9 6dbc 309a c237 a412 aebc
00000040: 74a7 1dbd da73 d9bd 9c04 9cbc c2ac bbbd
00000050: 6a4f 883d 51bf 9dbd 0333 2fbe 645c 3bbe
00000060: 3572 ac3b 28b0 fc3c 8a32 7f3d 2ade 0b3c
00000070: 4c0a bf3d 6c08 af3d 6d9a a3bc 92ff 693c
00000080: cdd3 b9bd 0e20 be3d 8ab9 243b 45ce 0fbe
00000090: 67a4 b7bd bbbd 17be e137 013d 21c3 12be
000000a0: 9aa8 e63c 65bc ee3c 7877 6f3d 2b21 f23d
000000b0: e235 a03d ef03 743d db9f dc3d 622d 8e3e
000000c0: 75c0 7f3e d5bf 003e cc30 753c a82f f33c
000000d0: 02d0 b6bc 1266 6bbd 8f11 92bc fed1 623d
000000e0: bf87 b53c 09f6 333d 4b0b dfbc 475c 92bd
000000f0: 069d b4bd e323 b3bd df41 84bd 6ff6 a4bd
00000100: 73ce 3dbd d564 c4bc 2c10 59be 6bb2 58be
00000110: 885e 36bd a643 c63c 0196 82bd ba3c e5bd
00000120: ebfd 21bd 66be a9bc c1d1 6d3c 31cf e03c
00000130: 6935 4cbd b2f5 f7bb 0ec8 993d 6be1 6c3d
00000140: 7b98 133c 20c1 03bd c7c7 0abe 85a5 cebd
00000150: 2b1a 55bd a8eb fbbd 3c6f 79bc 6aa5 843d
00000160: a3b1 19bc 26a6 c8bd c35b 9dbd 0018 9c3d
00000170: 15e7 363e 736f 0e3e 157c 923d 63b9 1c3c
00000180: 2c46 30bd 24ed a43c 9b33 80bc 4355 90bd
00000190: 1300 443d ef04 0c3e 64e6 043e ddc0 ce3d
000001a0: 1470 9e3d 959c 083d a2ca f2b9 60bf 373d
000001b0: a0c2 d13d 4625 36bd 5196 c9bb bc4a b3bc
000001c0: 19f5 983b 5b00 683d d85e e03b 6791 04be
000001d0: 89a6 72be 9679 cbbd e685 d43d 7adc 2c3e
000001e0: 642d b9bc 131b ffbd 649e c5bd bd50 38bb
000001f0: 5787 9e3d b021 4c3d fcd6 fdbc 9f38 efbb
00000200: 0b08 653d 6757 803d d25f 1e3e 9bcc 0bbd
00000210: 29b1 493d 7652 f6bd a0de 3139 7b2a 9b3c
00000220: 1037 0cbc 5e41 0a3d fec8 d9bd 36bc e2bb
00000230: 2c10 9abd 3174 b2bd ea9d 8cbd a0e5 4ebd
00000240: 69fc 8a3d 4222 18be ab2e 3fbe a11e 40be
00000250: a555 a4bd 065c 883c d0e5 80be 0954 10be
00000260: 32bd 3cbe 8ce0 67bd f16b a0bd a4bc 05be
00000270: 24bd 13be 7415 5fbe 0e1d c0bd b374 2fbb
00000280: 5447 59bc 1410 ae3d 182a 89bc 4bbb b0bc
00000290: f55f c83d d926 013e 7339 823e d644 153e
000002a0: 5f27 d0bc c192 bdbd 109f debc 38de 983d
000002b0: 19cc a63d 179b 6bbd ea14 04be 7a76 81bd
000002c0: 0f88 4ebd 398e 34ba 6bf0 0d3e db56 a03c
000002d0: 273c 613d 95f7 563d bcc6 8cbd 8157 143e
000002e0: 32c3 2c3e fdae dc3d d4e7 3a3e 9d87 ce3d
000002f0: 5040 1e3e d89f 523e ec5c 3a3e 7e33 743e
00000300: 4730 893e 1469 723e 2afa 5b3d 822c 0b3e
00000310: b0f0 503e 5bbb 983e 6776 283e 61d0 61bd
00000320: 2acf 3fbc 6663 1a3c 1319 d5bc 833f 933d
00000330: e12e b9ba 9b25 ffbc ba6a 103c 3cdf 19bb
00000340: 76dd 103d 461c 113c d482 aebb 9744 dc38
00000350: 45f5 00be 4e0f 99bc d4d9 253d 3b6e 54bd
00000360: 6e04 603b 475c c4bd 65cb 0ebd 4227 92bd
00000370: b2d2 1abd ba48 d5bd 729d 78be 167e 47be
00000380: 03d8 85be 7689 09be 9795 46bb 612b ef3a
00000390: 06fe b5bb be45 2b3d 7a8b ecbd 9f38 c23d
000003a0: 060d b9bc d2d2 0b3d c3dc ad3c 541b 833d
000003b0: c2d9 0b3e 0831 54bd 7f46 673c a4ee 803d
000003c0: a608 d33c 668d 9e3d 66c2 a7bd 4265 9cbd
000003d0: c27d 05be 1dd2 16be 5bdf c2bd 1c70 e8bd
000003e0: e7e5 e1bd 8397 4ebe 5745 6bbd 854c 913a
000003f0: c305 fabd 53c1 8cbd 17c5 41bc 2143 d8bb

conv.3.bias f4 [20]
0.04581208 0.008139471 -0.00037965717 -0.0127966255 -0.05163599 -0.075920716 0.008618162 0.019026075
-0.05998011 -0.05259501 0.04929083 -0.007675657 -0.040583692 0.0040243664 -0.06512324 0.03202175
0.04293619 -0.075306 0.058532473 -0.055142704
00000000: 73a5 3b3d 6a5b 053c b90c c7b9 f0a8 51bc
00000010: 4380 53bd 527c 9bbd 3133 0d3c 92dc 9b3c
00000020: b4ad 75bd dd6d 57bd 2ee5 493d 1484 fbbb
00000030: 163b 26bd d5de 833b 555f 85bd 3d29 033d
00000040: dcdd 2f3d 083a 9abd bfbf 6f3d 51dd 61bd

fc.1.weight f4 [50, 320]
0.06069084 0.122866616 0.09114476 0.02861743 0.08963797 0.2342323 0.112768054 0.053679742
0.011018583 0.045314506 -0.11461845 -0.04947846 -0.088876195 -0.0066736485 -0.07499881 -0.13104881
0.0335899 -0.02770667 -0.027472286 -0.05083841 -0.05957419 -0.032402784 0.0011142762 0.009525814
0.06549109 0.0070984922 0.044727087 0.11107385 -0.11154741 -0.21428801 -0.12950037 -0.025492487
0.04489726 -0.0028122754 0.043555196 0.06575599 0.06853234 0.044375945 -0.051707495 -0.07151019
0.05330738 -0.022560284 -0.25951412 -0.10809233 -0.025499446 -0.11792238 -0.12554218 0.032055262
0.02769419 -0.022798356 -0.04069613 -0.034628883 0.061624523 0.039708544 -0.08811058 0.002731097
-0.118469246 -0.17707153 -0.25169328 -0.070087016 -0.21633951 -0.107278325 -0.039182566 -0.035481066
0.019781264 -0.002634102 0.03204205 0.032259297 -0.019509591 0.089491986 0.041441903 -0.018310819
0.19398491 0.016714094 -0.047568478 0.06969257 0.10494257 0.06499073 -0.12350884 -0.14527985
0.008109511 0.068030834 0.033850804 0.07233385 0.11673871 -0.026258448 -0.07762398 0.042967696
-0.02576308 0.009514015 -0.035239596 -0.042320754 -0.0025285599 -0.030278916 -0.11748719 0.026094165
0.119789794 -0.03175934 0.09011019 0.0037490807 0.1997507 0.054173462 -0.119443774 -0.015561443
0.09906307 0.033422753 0.017757682 0.05269998 0.06626195 -0.032248884 -0.1593558 -0.099102795
-0.062798925 -0.30075613 -0.15580665 -0.021836014 0.015287057 -0.036582325 -0.08254663 -0.060793977
0.12607737 0.06571068 0.11788603 0.07583424 0.032756954 0.029312324 0.043515515 0.015876487
0.021212325 -0.032426104 0.022275098 0.028416194 0.03767536 0.02348248 0.033557095 0.009167679
0.084278196 -0.0120907985 -0.034365326 0.05155229 0.12139151 0.08335191 -0.041341726 0.026041694
0.059081357 0.10506658 0.041849207 0.019651107 -0.18383282 -0.05549405 -0.038705494 -0.13290443
-0.06367149 0.018022608 -0.008835845 -0.06463989 -0.13399164 -0.14005505 0.015981978 -0.26262543
0.13445146 0.024046648 0.038374286 -0.013765536 0.11407087 -0.023228593 0.011135293 -0.033707336
0.087986715 0.05589918 0.0057327147 -0.047590297 -0.016074536 0.10570045 0.037014175 0.08348966
0.08157631 0.05282612 0.05290265 0.051107727 0.07536688 0.066476144 0.027111577 0.02941532
0.09142733 -0.010254331 0.022904895 0.034776285 0.06793338 0.09131923 0.105882116 0.047601968
-0.007134605 0.041150775 0.003402278 -0.022090742 0.10283343 0.071842656 0.0073450212 -0.022011928
0.0927932 0.17181695 0.10611581 -0.07389708 0.011677913 0.11569801 -0.07989101 -0.0390049
0.016606228 0.076468654 -0.015586701 0.06362243 -0.0819794 -0.0930308 -0.22389266 -0.14293084
-0.024676327 -0.018619997 -0.12535578 -0.0011405698 -0.14021222 -0.13268252 -0.17062242 -0.2026281
0.09751072 0.01589264 -0.016004805 -0.05353909 0.2303771 0.08076359 0.046919975 -0.10103003
0.0088242125 -0.10747996 -0.065520205 -0.025712008 0.005787958 0.01956809 0.03405258 0.0016895238
-0.016628593 -0.20758887 -0.07611324 -0.02180769 -0.034939907 -0.07065149 -0.05638778 -0.031086074
-0.027806394 -0.05846457 -0.109868005 0.018223727 0.11020156 -0.11273075 0.07680599 0.12962142
00000000: f596 783d 7ea1 fb3d 1baa ba3d 1a6f ea3c
00000010: 1d94 b73d 98da 6f3e f0f2 e63d 4adf 5b3d
00000020: 4987 343c b49b 393d 14bd eabd eda9 4abd
00000030: b904 b6bd 9fae dabb fa98 99bd a931 06be
00000040: 9095 093d 19f9 e2bc 8f0d e1bc f03b 50bd
00000050: 1104 74bd c8b8 04bd e80c 923a 2912 1c3c
00000060: 3120 863d 789a e83b c033 373d b07a e33d
00000070: f872 e4bd 516e 5bbe bf9b 04be 9fd5 d0bc
00000080: 30e6 373d 274e 38bb ef66 323d 14ab 863d
00000090: af5a 8c3d 8dc3 353d 3dcb 53bd ef73 92bd
000000a0: d758 5a3d 58d0 b8bc 09df 84be 835f ddbd
000000b0: 37e4 d0bc 4a81 f1bd 218e 00be 614c 033d
000000c0: edde e23c 9ec3 babc fcb0 26bd 04d7 0dbd
000000d0: ff69 7c3d 6da5 223d 5273 b4bd 34fc 323b
000000e0: 01a0 f2bd 3d52 35be f1dd 80be c889 8fbd
000000f0: 1b88 5dbe bdb4 dbbd e67d 20bd 9854 11bd
00000100: 510c a23c e6a0 2cbb 863e 033d 5322 043d
00000110: 94d2 9fbc 9347 b73d fcbe 293d 9200 96bc
00000120: fba3 463e ffeb 883c 2ad7 42bd faba 8e3d
00000130: 21ec d63d dc19 853d 34f2 fcbd 3ec4 14be
00000140: c1dd 043c c053 8b3d 24a7 0a3d c523 943d
00000150: b414 ef3d f51b d7bc 52f9 9ebd e5fe 2f3d
00000160: 180d d3bc ace0 1b3c 6557 10bd 8758 2dbd
00000170: 32b6 25bb 7d0b f8bc 209d f0bd 6ec3 d53c
00000180: 5a54 f53d 1516 02bd b18b b83d 23b3 753b
00000190: 738b 4c3e fee4 5d3d f09e f4bd 6cf5 7ebc
000001a0: 94e1 ca3d 4ce6 083d 8f78 913c efdb 573d
000001b0: 58b4 873d 6817 04bd 2b2e 23be 68f6 cabd
000001c0: b99c 80bd b5fc 99be c78b 1fbe 71e1 b2bc
000001d0: 9076 7a3c 59d7 15bd 350e a9bd 1b03 79bd
000001e0: 6d1a 013e 5293 863d 3b6e f13d fb4e 9b3d
000001f0: 282c 063d 6620 f03c 533d 323d 680f 823c
00000200: 78c5 ad3c 3cd1 04bd 447a b63c 14c9 e83c
00000210: 7a51 1a3d 545e c03c 2a73 093d 0834 163c
00000220: 0c9a ac3d 7c18 46bc a8c2 0cbd 7e28 533d
00000230: 1d9c f83d 68b4 aa3d f155 29bd 6455 d53c
00000240: 4bff 713d 262d d73d 136a 2b3d 5cfb a03c
00000250: ac3e 3cbe bb4d 63bd a789 1ebd 1918 08be
00000260: 3366 82bd 26a4 933c 38c4 10bc eb61 84bd
00000270: 1b35 09be 976a 0fbe a3ec 823c d776 86be
00000280: a5ad 093e 7afd c43c 5b2e 1d3d d888 61bc
00000290: fd9d e93d e449 bebc ce70 363c b410 0abd
000002a0: 6132 b43d 8af6 643d 7fd9 bb3b 0bee 42bd
000002b0: bfae 83bc 7a79 d83d 2d9c 173d a0fc aa3d
000002c0: 7b11 a73d 3460 583d 73b0 583d 5656 513d
000002d0: f359 9a3d a524 883d 1919 de3c 66f8 f03c
000002e0: 413e bb3d c801 28bc 0ca3 bb3c 9471 0e3d
000002f0: a820 8b3d 9405 bb3d b9d8 d83d 48fa 423d
00000300: 68c9 e9bb b78d 283d c1f8 5e3b a5f7 b4bc
00000310: 559a d23d 3e22 933d 81ae f03b 5c52 b4bc
00000320: 5c0a be3d c8f0 2f3e 3f53 d93d 5a57 97bd
00000330: b854 3f3c 14f3 ec3d e69d a3bd 9ac3 1fbd
00000340: c909 883c 999b 9c3d 5d5f 7fbc 7a4c 823d
00000350: d1e4 a7bd ef86 bebd 1e44 65be 765c 12be
00000360: 0226 cabc f788 98bc 445d 00be 2c7f 95ba
00000370: cb93 0fbe eddd 07be a5b7 2ebe be7d 4fbe
00000380: b3b3 c73d 4831 823c 821c 83bc ce4b 5bbd
00000390: f9e7 6b3e 6267 a53d 292f 403d d5e8 cebd
000003a0: 6e93 103c 741e dcbd 752f 86bd fda1 d2bc
000003b0: e9a8 bd3b 424d a03c b87a 0b3d 0373 dd3a
000003c0: b038 88bc 2d92 54be 42e1 9bbd 0aa6 b2bc
000003d0: 261d 0fbd bab1 90bd dff6 66bd 39a8 febc
000003e0: 3cca e3bc 8c78 6fbd 7a02 e1bd ed49 953c
000003f0: 5bb1 e13d 61df e6bd 754c 9d3d 7abb 043e

fc.1.bias f4 [50]
0.078817874 0.0328816 0.045698673 -0.022149617 -0.05681746 -0.032146193 0.038000923 -0.016374243
-0.007910821 -0.043047797 0.026023379 -0.003918873 0.006175987 0.038897425 0.016906451 -0.014014728
-0.0120105995 0.07076101 0.07324837 -0.030755792 -0.03272829 0.0675547 0.0698708 -0.037786372
-0.0063904338 0.015710874 -0.0589298 0.020292904 0.0801383 0.028033096 -0.076728545 0.04894891
0.026321953 0.018463612 0.0075617535 0.07667373 0.021076376 0.02339082 0.06586498 -0.019002361
0.023487005 0.015018766 -0.009497324 0.039297875 -0.066033356 0.03579457 0.048662685 0.03543554
0.024184158 -0.02902383
00000000: 446b a13d dbae 063d 882e 3b3d 1d73 b5bc
00000010: 6db9 68bd baab 03bd dba6 1b3d 4723 86bc
00000020: 639c 01bc e352 30bd fb2e d53c e469 80bb
00000030: ef5f ca3b e852 1f3d 667f 8a3c 089e 65bc
00000040: 1bc8 44bc 26eb 903d 3e03 963d 92f3 fbbc
00000050: 190e 06bd 1e5a 8a3d 6c18 8f3d e2c5 1abd
00000060: d866 d1bb 17b4 803c 6060 71bd 4e3d a63c
00000070: 8d1f a43d aaa5 e53c db23 9dbd a77e 483d
00000080: 23a1 d73c 0041 973c 96c8 f73b 1e07 9d3d
00000090: 5da8 ac3c 1b9e bf3c 38e4 863d d7aa 9bbc
000000a0: d267 c03c 4511 763c aa9a 1bbc cff6 203d
000000b0: 7f3c 87bd 549d 123d 8652 473d db24 113d
000000c0: db1d c63c 62c3 edbc

fc.4.weight f4 [10, 50]
-0.25026104 0.08163054 0.22201689 -0.23383908 -0.010847212 0.20270157 0.17949355 0.21598431
-0.15274706 0.0959043 0.0077979667 -0.18776615 -0.10525765 -0.12520935 -0.054403737 0.17966111
-0.34595993 -0.16381948 0.112304606 0.091968164 -0.13291165 0.15371956 0.10713959 -0.118507214
-0.078374006 -0.13483006 -0.20310777 0.106075704 0.11440511 0.17554891 0.1768065 -0.23765494
-0.024523474 0.10273391 -0.18266684 -0.22532214 -0.19037116 -0.09468147 -0.1670375 -0.19101323
0.062855445 -0.13463672 -0.21548179 -0.1887867 0.10279487 0.10390611 0.09687308 0.17892829
-0.10267663 0.23285219 -0.34640008 0.0031955654 -0.19810887 -0.15687294 0.075936124 -0.03352275
-0.16221027 -0.28046975 0.17543963 -0.10327689 -0.17201011 0.14497708 -0.2802074 -0.17175071
-0.25161546 -0.3290423 0.17378601 0.07059242 0.120159514 0.0003640233 -0.006455062 -0.3349949
-0.25979972 0.10928676 -0.11844245 -0.17504099 -0.2355787 0.02650771 0.14489003 -0.164694
-0.23398031 -0.17767245 -0.10739637 -0.12031721 0.18006742 0.10654597 0.1279433 -0.130898
0.1825158 -0.061701268 0.088424616 0.17893592 -0.30326238 0.16628651 -0.123155326 0.15196963
-0.26977485 0.17464492 -0.24238287 -0.13132198 -0.2290787 0.11794925 -0.11018047 -0.0315157
-0.10471359 0.15865773 -0.06588777 -0.1072976 -0.17623082 0.11667524 -0.07141581 0.12163139
0.092629984 0.053884827 -0.18875438 0.12914652 -0.15921682 0.11089153 -0.24823977 -0.08027593
0.07499258 -0.0339892 -0.23116311 -0.09171586 0.17069447 -0.18783453 -0.13578543 -0.032322932
-0.22929068 -0.037363265 -0.16483104 0.09570431 0.098478414 8.549743e-05 -0.07107064 0.054483935
-0.18276784 0.13734074 0.17329891 0.13947208 -0.06442243 -0.24021792 -0.20693718 0.15735503
0.05031844 -0.15335196 -0.12715402 0.15359184 0.17033635 0.23232251 -0.15081172 0.12348457
-0.1443428 0.19291563 -0.07052988 -0.047374174 -0.14983214 -0.265185 -0.28869873 0.10631448
-0.03528281 -0.30196574 0.13732797 0.17529453 -0.18752915 0.109420896 -0.19144851 0.08486126
0.061422996 0.11118888 0.015035049 0.17033775 0.10028823 0.096424356 -0.13335143 0.18047194
0.11169125 -0.147003 0.11887292 -0.10557998 -0.18787706 -0.020904133 -0.0884391 -0.058298554
0.16239 -0.04641032 -0.3253609 -0.017095719 0.16848831 0.118242495 0.1257184 0.08296648
-0.21157475 0.13568321 0.021912813 -0.3399047 -0.24638006 -0.1520418 -0.029661313 -0.077931754
0.08949473 0.010469519 -0.037212543 0.19819625 0.017796354 0.044858392 -0.05943246 0.22202368
0.16906534 0.1026981 0.16318224 0.11160513 -0.41637716 -0.17435852 0.19611609 -0.2344609
-0.13708524 -0.33314565 -0.2789838 -0.13332608 -0.039090425 -0.29044735 -0.3070574 -0.2671082
-0.05737094 -0.040275726 0.084797285 0.05638195 -0.28468326 -0.28598204 -0.22941487 -0.38130742
-0.0093646115 0.037298925 -0.1109171 0.07768369 0.12155845 0.1463252 0.16595724 -0.13934132
-0.103651255 0.18093431 0.1450828 -0.07215384 0.008270988 0.05916012 0.09671621 -0.004010903
-0.21416123 0.07833786 -0.14343163 0.03896967 -0.24094403 0.17254017 -0.06611311 -0.17162372
00000000: 3722 80be ea2d a73d 6558 633e 8373 6fbe
00000010: 81b8 31bc 0091 4f3e 28cd 373e fe2a 5d3e
00000020: ba69 1cbe 7969 c43d 1686 ff3b c545 40be
00000030: 5391 d7bd e136 00be 74d6 5ebd 15f9 373e
00000040: a921 b1be 4bc0 27be f5ff e53d ce59 bc3d
00000050: fe19 08be a968 1d3e 006c db3d e9b3 f2bd
00000060: 8d82 a0bd e410 0abe 7cfb 4fbe 383e d93d
00000070: 3a4d ea3d 18c3 333e c30c 353e d15b 73be
00000080: 74e5 c8bc 2866 d23d 040d 3bbe d9ba 66be
00000090: a8f0 42be 5ce8 c1bd e10b 2bbe f998 43be
000000a0: 5bba 803d 35de 09be 42a7 5cbe 4d51 41be
000000b0: 1e86 d23d bacc d43d 6565 c63d fa38 373e
000000c0: 2048 d2bd ce70 6e3e 5a5b b1be b16c 513b
000000d0: 0ddd 4abe 4da3 20be 6684 9b3d 274f 09bd
000000e0: 731a 26be bb99 8fbe 72a6 333e d682 d3bd
000000f0: 6b23 30be df74 143e 5877 8fbe 6bdf 2fbe
00000100: bed3 80be 3b78 a8be f6f4 313e c292 903d
00000110: 3116 f63d 61da be39 fc84 d3bb 7484 abbe
00000120: 7804 85be bdd1 df3d f591 f2bd f23d 33be
00000130: 8b3b 71be b226 d93c 0d5e 143e 8ba5 28be
00000140: 8998 6fbe c4ef 35be a1f2 dbbd df68 f6bd
00000150: 9863 383e c634 da3d 9203 033e 200a 06be
00000160: 6ce5 3a3e 78ba 7cbd f717 b53d fa3a 373e
00000170: 3545 9bbe 0347 2a3e dc38 fcbd ed9d 1b3e
00000180: ee1f 8abe 1ed6 323e 3733 78be 4579 06be
00000190: 9b93 6abe 608f f13d 4ca6 e1bd 9b16 01bd
000001a0: 1474 d6bd 2c77 223e 2bf0 86bd d8be dbbd
000001b0: da75 34be 6ef3 ee3d 7442 92bd e119 f93d
000001c0: cab4 bd3d 56b6 5c3d d448 41be fc3e 043e
000001d0: bc09 23be 191b e33d 9132 7ebe b567 a4bd
000001e0: b695 993d 4238 0bbd 06b6 6cbe 86d5 bbbd
000001f0: 88ca 2e3e b257 40be 560b 0bbe 0d65 04bd
00000200: 2dcb 6abe 390a 19bd 78c9 28be 9f00 c43d
00000210: 0daf c93d 154d b338 7c8d 91bd 8c2a 5f3d
00000220: 7e27 3bbe 0da3 0c3e 4575 313e c5d1 0e3e
00000230: e8ef 83bd b0fb 75be 57e7 53be ad21 213e
00000240: b51a 4e3d 4c08 1dbe aa34 02be 2e47 1d3e
00000250: a76c 2e3e f4e5 6d3e 636e 1abe 7ae5 fc3d
00000260: 99ce 13be ad8b 453e f871 90bd 6c0b 42bd
00000270: 996d 19be 54c6 87be 52d0 93be 68bb d93d
00000280: b584 10bd 419b 9abe b49f 0c3e 6980 333e
00000290: a407 40be 1018 e03d 140b 44be becb ad3d
000002a0: ae96 7b3d ffb6 e33d 9155 763c 056d 2e3e
000002b0: ea63 cd3d 227a c53d 478d 08be a3cd 383e
000002c0: 62be e43d f487 16be a573 f33d 513a d8bd
000002d0: d862 40be 253f abbc 8f1f b5bd 77ca 6ebd
000002e0: 9049 263e bf18 3ebd b495 a6be 520c 8cbc
000002f0: 3388 2c3e 1f29 f23d 53bc 003e 54ea a93d
00000300: 0da7 58be 8af0 0a3e 8082 b33c fd07 aebe
00000310: 0e4b 7cbe d8b0 1bbe 48fc f2bc af9a 9fbd
00000320: 0349 b73d 5888 2b3c 2e6c 18bd f5f3 4a3e
00000330: a9c9 913c 6fbd 373d 746f 73bd 2d5a 633e
00000340: 771f 2d3e 6253 d23d 3f19 273e 3b91 e43d
00000350: 632f d5be 0a8b 32be a8d2 483e 8516 70be
00000360: 1360 0cbe 1192 aabe f7d6 8ebe a286 08be
00000370: 481d 20bd 84b5 94be a136 9dbe 68c2 88be
00000380: cafd 6abd 29f8 24bd 33aa ad3d c2f0 663d
00000390: 01c2 91be 3d6c 92be bbeb 6abe ba3a c3be
000003a0: 076e 19bc c2c6 183d 8128 e3bd a018 9f3d
000003b0: a3f3 f83d 46d6 153e b2f0 293e 7eaf 0ebe
000003c0: 1c47 d4bd d846 393e 9690 143e 64c5 93bd
000003d0: 0a83 073c e251 723d 2613 c63d e56d 83bb
000003e0: 154d 5bbe 9a6f a03d bedf 12be a99e 1f3d
000003f0: 08ba 76be 5fae 303e 4f66 87bd 21be 2fbe

fc.4.bias f4 [10]
0.04370976 0.25621223 0.1374913 -0.25649202 -0.14017032 -0.2848836 0.061628297 -0.058059733
0.24450117 -0.0028856364
00000000: 0109 333d 402e 833e 85ca 0c3e ec52 83be
00000010: cf88 0fbe 43dc 91be f46d 7c3d 0bd0 6dbd
00000020: 845e 7a3e f21c 3dbb
