mlruns/0/f1e4f1f2fe5e409fb38b554a021985d8/artifacts/mnist_model/data/model.pth (torch, 96936 bytes, 8 tensors)

weight f4 [10, 1, 5, 5]
0	0xbde19a7c	-0.11015794
1	0xbdc80032	-0.09765662
2	0x3e24d918	0.1609844
3	0xbc92ba32	-0.01791105
4	0x3dbe8140	0.09301996
5	0xbe28b029	-0.1647345
6	0xbe1fa287	-0.15589343
7	0xbe7a0b18	-0.24418294
8	0x3bdcc3d5	0.006737212
9	0xbd915502	-0.07096292
10	0xbd90bfcd	-0.07067833
11	0xbe5c372a	-0.21505418
12	0xbe9e0750	-0.30864954
13	0xbe910c6d	-0.28329793
14	0xbdbe3cda	-0.0928895
15	0x3e61122a	0.21979585
16	0x3df428df	0.11921858
17	0xbd5da51a	-0.05411253
18	0xbe30e38d	-0.17274304
19	0xbe6f0623	-0.23342185
20	0x3d341d90	0.043973505
21	0x3e298942	0.16556266
22	0x3eda1281	0.42592242
23	0x3ed55dcb	0.4167312
24	0x3eb3449e	0.35013288
25	0x3e8931f2	0.26795918
26	0x3e302ed5	0.17205365
27	0xbe06dc4b	-0.13169973
28	0xbcb1c287	-0.021699203
29	0xb9cbf89f	-0.00038904414
30	0x3e4fbed8	0.20287645
31	0xbda259ca	-0.07927282
32	0x3db93f49	0.09045274
33	0xbe0420d6	-0.12903151
34	0xbdcf8c0f	-0.10134136
35	0xbd2ef74e	-0.042716317
36	0xbe43cc40	-0.19120884
37	0xbe359041	-0.1773081
38	0xbe4411d7	-0.1914743
39	0xbe6e6040	-0.23278904
40	0xbd2de8c6	-0.04245832
41	0xbe0902e5	-0.1338001
42	0xbcb2632d	-0.021775806
43	0xbdf8f451	-0.12155975
44	0xbbca603b	-0.0061760223
45	0xbd63e41f	-0.055637475
46	0xbe3848ce	-0.17996523
47	0xbe4af393	-0.19819479
48	0xbd4bfff7	-0.049804654
49	0xbd063209	-0.03276256
50	0x3dcccbc8	0.09999806
51	0xbe210375	-0.15723975
52	0xbed94ad0	-0.4243989
53	0xbe939615	-0.2882544
54	0xbd3db222	-0.04631246
55	0x3eccb864	0.3998443
56	0x3e0905af	0.13381074
57	0xbe6b805c	-0.22998184
58	0xbeb9850b	-0.36234316
59	0xbeb39819	-0.3507698
60	0x3eb719d6	0.357619
61	0x3df835f3	0.12119665
62	0xbe5f407f	-0.21801947
63	0xbf0b1f62	-0.5434476
64	0xbeac8506	-0.3369524
65	0x3d9f3dcd	0.077754594
66	0x3f29ea1e	0.6637286
67	0x3e93a7ce	0.28838962
68	0x3e1570ad	0.14593764
69	0x3e912ca0	0.2835436
70	0x3d6c89be	0.05774855
71	0x3e2cc943	0.1687365
72	0x3f14f650	0.58188343
73	0x3efcd79a	0.4938324
74	0x3d806a11	0.062702306
75	0x3d6e8bd0	0.058238804
76	0x3e20e5ba	0.15712634
77	0xbbe6dc74	-0.007045323
78	0xbd955ea4	-0.07293442
79	0xbd910008	-0.07080084
80	0x3e99644e	0.2995934
81	0x3ed9c7b4	0.42535174
82	0x3dd02b21	0.10164476
83	0xbeaa9bdd	-0.3332204
84	0xbebb08fb	-0.3653029
85	0x3e46fd74	0.19432622
86	0x3e583450	0.21113706
87	0x3e451bc3	0.19248872
88	0xbeeae307	-0.45876333
89	0xbe74ac0d	-0.23893757
90	0xbd9b0a2b	-0.07570299
91	0x3da682f7	0.08130448
92	0x3eaf83a1	0.34280112
93	0xbe461b16	-0.1934627
94	0xbe04ae54	-0.12957126
95	0xbeb1762f	-0.3466048
96	0x3e5b3131	0.21405484
97	0x3e58912a	0.21149126
98	0x3e3ef8be	0.18649575
99	0xbd72b4d8	-0.059254497
100	0x3e6d56cf	0.23177646
101	0x3ed6706a	0.4188264
102	0x3ef93dbf	0.4867992
103	0x3ecd3f15	0.4008719
104	0x3eb00a2e	0.34382766
105	0x3a8156e5	0.0009867816
106	0xbd336c8b	-0.043804687
107	0x3ddf966a	0.10917361
108	0x3e83396f	0.25629756
109	0x3e6003ad	0.21876402
110	0xbe6f6e99	-0.23382033
111	0xbe2cd9c9	-0.16879953
112	0xbe5a5c34	-0.21324235
113	0xbeea19c5	-0.45722786
114	0xbe81e169	-0.25367287
115	0xbdc336e0	-0.09531951
116	0xbe215710	-0.15755868
117	0xbe9e7305	-0.30947128
118	0xbea7e8cd	-0.327948
119	0xbe11e6a2	-0.14248136
120	0x3dec6faa	0.11544736
121	0xbe42e536	-0.1903275
122	0xbc90aead	-0.017661417
123	0x3da086fb	0.078382455
124	0x3da0f3e0	0.078590155
125	0x3e83b685	0.2572519
126	0x3eeed550	0.4664712
127	0x3ed86c45	0.42270103
128	0x3d926c42	0.07149555
129	0x3e151100	0.14557266
130	0x3ed229b4	0.41047442
131	0x3e865fc4	0.26244938
132	0x3e8f9418	0.28042674
133	0xbe618ed6	-0.22027144
134	0xbd8b874c	-0.06812915
135	0x3eb9e520	0.3630762
136	0x3da77b10	0.08177769
137	0xbdeecc58	-0.11660069
138	0xbe49fdf6	-0.19725785
139	0xbe968736	-0.29400033
140	0x3e2a4fd6	0.16632017
141	0xbd66d21d	-0.056352723
142	0xbeac01ce	-0.33595127
143	0xbeab0562	-0.33402544
144	0xbe7351ed	-0.23761721
145	0xbd552bff	-0.05204391
146	0xbeab77cc	-0.33489835
147	0xbe24b27a	-0.16083708
148	0xbe01137f	-0.12605093
149	0xbd0f8d8a	-0.03504709
150	0x3dd8da85	0.10588554
151	0x3ea40c45	0.3204061
152	0xbd9ec936	-0.07753222
153	0x3da9aef1	0.082853206
154	0xbd1afcdb	-0.037838798
155	0xbe31471d	-0.17312284
156	0x3ea959f2	0.33076435
157	0x3ef0287d	0.4690589
158	0x3ef94c2b	0.48690924
159	0x3f08c8ea	0.5343157
160	0xbe3d37a2	-0.18478253
161	0xbea03938	-0.31293654
162	0xbcab8ea5	-0.020942042
163	0xbd5f4293	-0.05450685
164	0x3e90c6b1	0.2827659
165	0xbe8f22e1	-0.27956298
166	0xbe55caa4	-0.20878083
167	0xbe5e1e66	-0.21691284
168	0xbead76fd	-0.33879843
169	0xbdc735fb	-0.09727093
170	0xbe30fa40	-0.17282963
171	0xbd5166bb	-0.051123362
172	0xbeaa39a2	-0.33247095
173	0xbc11e557	-0.008904777
174	0x3d6c5020	0.0576936
175	0xbd3800ad	-0.04492252
176	0xbeb19d4c	-0.3469032
177	0xbe845d9a	-0.25852662
178	0x3e4204bf	0.18947123
179	0x3c172f04	0.009227518
180	0xbeaf064c	-0.34184492
181	0xbe949bab	-0.29025015
182	0x3ea6da6f	0.32588527
183	0x3ee19daf	0.44065616
184	0x3e97471b	0.29546437
185	0xbea8cd44	-0.32969105
186	0x3e23ef11	0.16009165
187	0x3ef16c07	0.4715273
188	0x3e8747ab	0.26421866
189	0xbe812e88	-0.25230813
190	0x3cd50dee	0.026007619
191	0x3e60a9e5	0.2193981
192	0x3e41a6a6	0.18911228
193	0x3e1ab312	0.15107372
194	0xbeb85563	-0.36002645
195	0x3da1e3c9	0.07904775
196	0xbd8608e4	-0.065446645
197	0x3e1bd286	0.15217027
198	0xbe91cb48	-0.28475404
199	0xbe1bd387	-0.1521741
200	0xbe81e72b	-0.2537168
201	0xbddfacf3	-0.10921659
202	0xbea56eff	-0.32311246
203	0xbd1c5009	-0.038162265
204	0x3ed17b53	0.409144
205	0xbed485ca	-0.41508323
206	0xbeccc619	-0.39994887
207	0xbe80fc05	-0.25192276
208	0x3ebe58cb	0.3717712
209	0x3e5f463f	0.2180414
210	0xbec3d38c	-0.38247335
211	0xbe5056a9	-0.20345558
212	0x3e6410ec	0.2227208
213	0x3e9c6c52	0.30551392
214	0x3eb07b48	0.34469056
215	0xbe9a6eeb	-0.3016275
216	0xbe169a67	-0.14707337
217	0x3e841163	0.25794515
218	0x3eedfecc	0.46483457
219	0x3e393445	0.18086345
220	0x3cf3b014	0.029747047
221	0x3e1314ed	0.14363451
222	0x3cd970f4	0.026543118
223	0x3eaf5c87	0.3425028
224	0x3d123aba	0.035700537
225	0xbcbfd39f	-0.023416338
226	0x3d42d9ac	0.04757087
227	0x3e11dbe7	0.14244042
228	0x3efb123e	0.49037355
229	0x3eb0bfbb	0.3452128
230	0xbe318f58	-0.17339838
231	0xbdfe65f7	-0.12421792
232	0xbe1493b4	-0.1450947
233	0x3ec4986c	0.3839754
234	0x3e494f4f	0.1965916
235	0x3bbf0707	0.005829695
236	0xbd840fca	-0.06448324
237	0xbe93e9bf	-0.28889272
238	0xbdd9ba8d	-0.10631285
239	0x3edf46db	0.43608746
240	0xbe462f8a	-0.19354072
241	0xbd9ab95d	-0.075548865
242	0xbe82e900	-0.2556839
243	0xbc703996	-0.014662167
244	0x3d8e2a27	0.06941634
245	0xbe8b21d6	-0.27174252
246	0xbe159704	-0.14608389
247	0xbe078a44	-0.13236338
248	0xbe8d8ca8	-0.27646375
249	0x3daa291b	0.083086215

bias f4 [10]
0	0xbd9a3f00	-0.075315475
1	0xbe8b6b87	-0.27230474
2	0x3bf7c922	0.0075618187
3	0x3e6b375a	0.22970334
4	0x3c6869f0	0.014185414
5	0x3e3127cb	0.17300336
6	0x3d37bc25	0.044857163
7	0x3df701d2	0.12060894
8	0xbc3a6426	-0.011376416
9	0xbe252952	-0.16129044

weight f4 [20, 10, 5, 5]
0	0x3b5ac05e	0.003337882
1	0xbd4d326a	-0.050096907
2	0x3c68259c	0.014169123
3	0xbd6d8e0a	-0.057996787
4	0x3cd2235b	0.025651624
5	0xbd7f91a5	-0.062394757
6	0xbddd388c	-0.10801801
7	0xbdc928ff	-0.098222725
8	0xbe2111bf	-0.15729426
9	0xb8e613e4	-0.000109709596
10	0xbdb8e5ab	-0.09028181
11	0xbdd12b5d	-0.10213349
12	0xbd3b6f97	-0.045760717
13	0xbdcc7fd4	-0.09985319
14	0x3cb823ea	0.022478063
15	0x3d2cc33f	0.04217839
16	0x3d59c6b8	0.05316803
17	0xbb8be266	-0.004268932
18	0x3d34a528	0.044102818
19	0x3ce3410e	0.027740981
20	0xbcfa23bf	-0.030534623
21	0xbdb97c11	-0.09056867
22	0x3c075274	0.008259404
23	0xbd50e46b	-0.050999086
24	0xbdffaf27	-0.124845795
25	0x3c151ed8	0.009101592
26	0xbd5b13c6	-0.053485654
27	0xbda82d88	-0.082118094
28	0xbdc7370b	-0.097272955
29	0xbcecedc4	-0.02892197
30	0xbc81dd00	-0.015852451
31	0xbdbd3cca	-0.0924011
32	0xbe09155f	-0.13387059
33	0xbdd77b2a	-0.105215386
34	0x3d20093e	0.039071314
35	0xbddc471c	-0.107557505
36	0xbdb5c37f	-0.088751785
37	0xbe16defe	-0.14733502
38	0xbd5917d1	-0.05300123
39	0xbd2cfebd	-0.042235125
40	0xbca6190a	-0.020275611
41	0xbe165c20	-0.1468358
42	0xbd5c6f8d	-0.05381732
43	0xbc98b72e	-0.018642034
44	0x3d8c6292	0.06854738
45	0x3d438fcc	0.047744557
46	0x3dd91332	0.10599364
47	0x3d96fd22	0.073725
48	0x3d4242bf	0.047426935
49	0x3ddc374f	0.10752737
50	0xbdf2f6f9	-0.118635125
51	0x3d238a08	0.03992656
52	0x3d1440c5	0.03619458
53	0x3a50beff	0.0007963031
54	0x3d9df251	0.07712234
55	0xbdd92b03	-0.10603907
56	0xbe0bce81	-0.13652994
57	0xbaed8105	-0.0018120116
58	0x3b1217df	0.002229206
59	0x3cec0f5a	0.028815914
60	0xbdc5e619	-0.09663028
61	0x3d8f7803	0.07005312
62	0x3e18e15f	0.14929722
63	0x3cc903ae	0.024537887
64	0x3da70b40	0.08156443
65	0x3e79807d	0.2436542
66	0x3e66e351	0.22547652
67	0x3e056b02	0.13029101
68	0x3d3144dc	0.04327856
69	0xbd24740e	-0.04014974
70	0xbe153429	-0.14570679
71	0xbe3acc60	-0.18242025
72	0xbea3dccb	-0.3200439
73	0xbe95ff42	-0.2929631
74	0xbeca539b	-0.3951691
75	0x3e2076ea	0.15670362
76	0x3d4f4688	0.050604373
77	0x3c4125d9	0.011788809
78	0x3e2c1f63	0.16808848
79	0x3c0ea819	0.00870707
80	0x3d676161	0.056489352
81	0x3d96284d	0.073319055
82	0x3e079af5	0.13242705
83	0x3e00ba50	0.12571073
84	0x3d8ad38b	0.0677863
85	0x3d926c59	0.07149572
86	0x3dab80e9	0.08374197
87	0x3ce13f46	0.027495991
88	0x3d65335c	0.055957183
89	0x3c998933	0.01874218
90	0x3d8abfdc	0.067748755
91	0x3d5d47e5	0.054023642
92	0x3d0943d1	0.03351194
93	0x3de1ac20	0.11019158
94	0x3c34b3e2	0.0110292155
95	0xbe1a5555	-0.15071614
96	0xbda37e15	-0.079830326
97	0xbd493d0a	-0.049130477
98	0x3cabf274	0.020989634
99	0xbda851bd	-0.08218715
100	0xbd5c37a0	-0.053763986
101	0xbe33e673	-0.17568378
102	0xbd6e4947	-0.05817535
103	0xbdc3e66d	-0.095654346
104	0xbe0d0107	-0.13769923
105	0xbe844bf5	-0.258392
106	0xbe31b1ed	-0.1735303
107	0xbdf7c08d	-0.12097273
108	0xbd8aeb22	-0.06783129
109	0xbd93b6b8	-0.07212585
110	0xbe6318d3	-0.22177438
111	0xbe806e0c	-0.2508396
112	0xbe90e3f6	-0.2829892
113	0xbe096622	-0.13417867
114	0xbd9b8d2e	-0.07595287
115	0xbd50c88a	-0.0509725
116	0x3cfca771	0.030841561
117	0x3b8de2fb	0.0043300367
118	0x3d49fc97	0.049313154
119	0x3de0168a	0.10941799
120	0x3dced84a	0.100998476
121	0x3e2bc5ae	0.16774628
122	0x3dbe1558	0.09281415
123	0x3e093fdc	0.13403267
124	0x3ce86633	0.028369045
125	0x3d93383e	0.07188462
126	0x3d3e061c	0.046392545
127	0x3d34f76d	0.044181276
128	0x3d68f6eb	0.056876104
129	0x3cf3cd9e	0.029761132
130	0x3c88b9ae	0.016690101
131	0x3d4bd2da	0.04976163
132	0x3d4eaecc	0.050459668
133	0x3d20b054	0.03923066
134	0xbcca513b	-0.024696937
135	0xbcd08abb	-0.025456777
136	0xbd7daa71	-0.061930124
137	0xbe30ed36	-0.17277989
138	0xbd3a978d	-0.045554686
139	0x3cd15aa3	0.025555914
140	0xbe295aff	-0.16538619
141	0xbe1ea02b	-0.15490787
142	0xbe08884d	-0.13333245
143	0xbd2bdf1f	-0.04196083
144	0x3b7bd458	0.0038426127
145	0xbd7f0632	-0.062261768
146	0x3b7b757e	0.0038369591
147	0xbc2f1fa7	-0.010688699
148	0x3d8b058c	0.06788167
149	0x3ad5263d	0.0016262006
150	0xbd2787ed	-0.040901113
151	0xbc9b69e3	-0.01897139
152	0xbe0c7932	-0.13718107
153	0xbcc303e2	-0.023805562
154	0xbddb9f81	-0.10723782
155	0xbe797e5a	-0.24364606
156	0xbe256b1e	-0.16154143
157	0xbdbe42c9	-0.09290082
158	0xbd208921	-0.039193276
159	0x3d35c54a	0.044377603
160	0xbc621e5b	-0.013801183
161	0xbd95ff45	-0.073240794
162	0x3ba64feb	0.005075445
163	0xbca2e89d	-0.01988631
164	0x3d0c93c8	0.034320623
165	0x3d9ff0bb	0.078095876
166	0x3de5cfbf	0.11221265
167	0x3dbe1166	0.09280662
168	0x3d149ef9	0.03628442
169	0xbc5b908a	-0.01340116
170	0x3e33d08f	0.17560028
171	0x3e4dad33	0.20085602
172	0x3e4b0b87	0.19828616
173	0x3d8ebab5	0.06969205
174	0xbcdbb9a0	-0.026821911
175	0x3cedb197	0.029015345
176	0x3d0f6738	0.035010546
177	0x3dffc6a8	0.124890625
178	0x3e26426c	0.16236275
179	0x3e2061fd	0.1566238
180	0x3e2310d8	0.15924394
181	0x3e0aed3c	0.1356706
182	0x3e30a9a7	0.17252217
183	0x3e1d0f69	0.1533791
184	0x3c5e9104	0.013584379
185	0x3dc753a0	0.09732747
186	0x3dd7de4d	0.105404474
187	0x3d42ebee	0.04758828
188	0x3d3ffc9d	0.04687177
189	0xbc1a7d38	-0.009429269
190	0xbdbade04	-0.09124377
191	0xbd8f4de4	-0.06997278
192	0x3d5d5754	0.05403836
193	0x3d4528fc	0.04813479
194	0x3e4094a6	0.18806705
195	0xbdd5dd8f	-0.104426496
196	0xbe5608a1	-0.20901729
197	0xbdd606ba	-0.10450502
198	0x3d6cbbc8	0.05779627
199	0x3d81df24	0.06341389
200	0x3cc8b32c	0.024499498
201	0x3e27395f	0.16330479
202	0x3d417882	0.047234066
203	0x3d840c2f	0.06447636
204	0x3c0fed0c	0.008784544
205	0x3e524824	0.20535332
206	0x3e06907d	0.13141055
207	0xbad9dd72	-0.0016621782
208	0x3cec7d3d	0.028868312
209	0xbd785582	-0.06062842
210	0x3de23376	0.11044972
211	0xbcad8254	-0.02118031
212	0xbce67e19	-0.0281363
213	0x3ce45e10	0.027876884
214	0xbd8f3b82	-0.06993772
215	0xbd9dc6eb	-0.07703956
216	0xbe2a31c4	-0.16620547
217	0xbd06d033	-0.032913398
218	0xbe2c70d1	-0.16839911
219	0xbd3e010f	-0.04638773
220	0xbebcdcd4	-0.36887228
221	0xbeab7b19	-0.33492354
222	0xbe87c298	-0.2651565
223	0xbe872467	-0.2639496
224	0xbeac9730	-0.33709097
225	0x3c35629c	0.011070874
226	0xbe59e557	-0.21278892
227	0xbe2508e4	-0.16116673
228	0xbe096f46	-0.13421354
229	0xbe09e27b	-0.13465302
230	0xbe28b4a2	-0.16475156
231	0xbe70b72d	-0.23507376
232	0xbe0124a5	-0.12611635
233	0x3ddc7abd	0.10765598
234	0x3dd9b5af	0.106303565
235	0x3d030f9e	0.031997316
236	0x3c2755fd	0.010213372
237	0xbc70c2ea	-0.014694909
238	0x3dbd2044	0.0923467
239	0x3d392968	0.045205504
240	0x3e165341	0.14680196
241	0x3d53ffe4	0.05175771
242	0x3d07f385	0.033191223
243	0xbbef5df2	-0.0073049003
244	0x3d7ef912	0.06224925
245	0x3dcdba6e	0.10045324
246	0x3e2aa9de	0.16666362
247	0x3de40511	0.11133779
248	0x3d4af190	0.04954678
249	0x3d3959d9	0.0452517
250	0x3cd1a9fc	0.02559375
251	0xbcf9de74	-0.030501582
252	0xb9e70113	-0.00044060554
253	0xbc190799	-0.00934019
254	0xbe0233d0	-0.12715077
255	0x3d9bec31	0.07613409

bias f4 [20]
0	0x3c4cf208	0.012508877
1	0xbd5746a3	-0.0525576
2	0xbb71fbfc	-0.0036923876
3	0xbbf6324a	-0.007513319
4	0xbcba488d	-0.022739673
5	0xbdaf5473	-0.08561029
6	0xbd30be79	-0.0431504
7	0xbbfd4994	-0.0077297185
8	0xbd95dfe4	-0.073180944
9	0xbd35b57e	-0.044362538
10	0x3c19d567	0.009389258
11	0x3cc5d2b9	0.024148332
12	0xbd2a837d	-0.041629303
13	0xbd5b3809	-0.053520236
14	0x3c456a47	0.012049264
15	0xbb03785c	-0.0020060753
16	0xbdd37f58	-0.10327023
17	0x3afd5f8b	0.0019330842
18	0xbcb10369	-0.021608071
19	0x3bd4fa28	0.0064995475

weight f4 [50, 320]
0	0x3d0e3c0a	0.034725226
1	0xbd7d62af	-0.06186169
2	0xbddcbe0b	-0.10778435
3	0xbd707056	-0.058700882
4	0xbe3221e7	-0.17395745
5	0xbddc0c27	-0.107445054
6	0xbd67f12c	-0.056626484
7	0x3dc1d1d2	0.09463848
8	0xbdeef68d	-0.116681196
9	0xbc15218a	-0.009102235
10	0xbc652532	-0.013985919
11	0x3d288558	0.04114279
12	0x3c3c09ea	0.011476973
13	0xbc27fd7b	-0.010253306
14	0xbd1bd6d4	-0.038046673
15	0x3d53372e	0.051566295
16	0xbdb6b1e9	-0.089206524
17	0x3d602ddc	0.054731235
18	0x3d2c4f04	0.042067543
19	0xbd9ee07e	-0.07757662
20	0x3df9f87a	0.12205596
21	0x3e29de2c	0.16588658
22	0x3df207ed	0.11817918
23	0xbc8844b3	-0.01663432
24	0x3e0068f1	0.12540032
25	0xbd156288	-0.03647092
26	0x3c0baa7f	0.008524536
27	0xbd706c4f	-0.05869704
28	0xbd992e14	-0.07479492
29	0x3d403270	0.0469231
30	0x3dcceb1d	0.10005782
31	0xbcae3d17	-0.021269364
32	0x3de42d7b	0.11141487
33	0x3e71cb55	0.23612721
34	0x3e4d5c48	0.20054734
35	0x3df65046	0.1202703
36	0x3e259aa4	0.16172272
37	0x3d7f0ce9	0.06226817
38	0xbba9d82a	-0.0051832395
39	0x3d01093c	0.031502947
40	0xbe075bf5	-0.13218673
41	0xbccb8b34	-0.02484665
42	0xbd57fc50	-0.05273086
43	0xbc1cb3fb	-0.009564395
44	0xbdf6e3e9	-0.12055189
45	0xbe1ad4cb	-0.15120237
46	0xbd2fa817	-0.042884912
47	0xbd1bfecd	-0.038084794
48	0x3e116b05	0.14200981
49	0x3de12c80	0.10994816
50	0xbc3d183d	-0.011541423
51	0xbda4d7b0	-0.080489516
52	0xbc38f30a	-0.011288414
53	0x3d2fd3eb	0.04292671
54	0xbd65650a	-0.05600456
55	0xbdc3a710	-0.09553349
56	0xbd96253d	-0.073313214
57	0x3c0345c5	0.00801224
58	0x3db16d45	0.0866342
59	0xbc949fde	-0.018142637
60	0xbdc98df0	-0.098415256
61	0xbd627fad	-0.055297542
62	0x3d8c0da6	0.06838541
63	0x3d35ab00	0.04435253
64	0x3da16c16	0.07881944
65	0xbdbb9479	-0.09159178
66	0xbd03a97a	-0.032144047
67	0xbe34a36b	-0.17640464
68	0xbd8b0c1c	-0.06789419
69	0x3d7acd24	0.061230794
70	0x3d938c7b	0.07204529
71	0xbc3d6049	-0.011558601
72	0xbcae1d62	-0.021254245
73	0x3d38766d	0.045034815
74	0x3cc891ba	0.02448355
75	0x3d7b8e7d	0.061415184
76	0x3ad2625e	0.0016051044
77	0x3d4d94d4	0.05019076
78	0x3dd65a72	0.1046647
79	0x3d5cb4bc	0.0538833
80	0x3c8a18f0	0.016857594
81	0xbd54c7c6	-0.05194833
82	0x3cefcfaf	0.029273836
83	0x3cff57ea	0.03116985
84	0x3e4052bc	0.1878156
85	0x3d908e12	0.07058348
86	0xbc6c495c	-0.014421787
87	0xbd332cf7	-0.043744054
88	0x3d17f008	0.037094146
89	0xbad53a06	-0.0016267903
90	0xbde12fa0	-0.10995412
91	0x3d65c881	0.05609942
92	0xbd878b26	-0.06618337
93	0xbd577d5e	-0.052609794
94	0xbd654605	-0.05597498
95	0xbc9aa573	-0.01887772
96	0xbe0b9f0f	-0.13634895
97	0xbc89c073	-0.0168154
98	0x3cd52a35	0.026021102
99	0x3ce33f8c	0.027740262
100	0xbe3044d0	-0.1721375
101	0xbd7c31d1	-0.061570946
102	0x3c61c35f	0.01377949
103	0x3cd46914	0.025929011
104	0xbe6b12f7	-0.22956453
105	0xbbb355bf	-0.005472868
106	0x3d10c6a1	0.035345677
107	0x3c5097a6	0.012731468
108	0xbd422857	-0.047401752
109	0x3d64add1	0.055829827
110	0x3da9c164	0.082888395
111	0xbd0f6b87	-0.035014655
112	0x3e8890ad	0.2667288
113	0x3db199ed	0.08671937
114	0x3daf209d	0.08551142
115	0xbe560f33	-0.20904236
116	0x3e391053	0.18072633
117	0xbb126f05	-0.0022344005
118	0x3d772989	0.060342345
119	0xbd48895f	-0.048959132
120	0xbbc4f561	-0.0060106968
121	0xbd1fc8e7	-0.039009955
122	0xbcd6bc5c	-0.026212864
123	0x3d66a414	0.05630882
124	0x3c8e9dd7	0.017409248
125	0xbd0f4dd2	-0.034986325
126	0x3a226d1c	0.0006196068
127	0x3d9883ce	0.07447015
128	0x3d091ff2	0.03347773
129	0xbccb0301	-0.024781706
130	0x3d6c795a	0.057732917
131	0x3cc9cb38	0.024633035
132	0x3c500628	0.01269678
133	0xbc859054	-0.016304173
134	0xbad1af18	-0.0015997617
135	0xbd54041b	-0.051761728
136	0x3be2f1c9	0.0069257957
137	0x3c0ee8dc	0.00872251
138	0x3d37463e	0.044744723
139	0xbc4846f0	-0.012223944
140	0x3c6cfaa2	0.014464052
141	0xbcc0b8fa	-0.023525704
142	0x3cf7d9ec	0.03025528
143	0x3d3f5fca	0.04672221
144	0x3d8c4484	0.06849006
145	0x3d64d628	0.055868298
146	0xbd06a786	-0.032874607
147	0xbe067f3b	-0.13134472
148	0xbb2a9fc7	-0.0026035176
149	0x3d3b392b	0.045708816
150	0xbd2b8267	-0.04187241
151	0xbc8179fa	-0.015805233
152	0xbad8594d	-0.0016506106
153	0xbd618497	-0.05505809
154	0xbd8acf64	-0.06777838
155	0xbc238bc3	-0.009982052
156	0xbd488f45	-0.048964757
157	0x3c11e811	0.008905427
158	0xbd446b31	-0.04795379
159	0x3d53913b	0.051652174
160	0x3d0a1a5d	0.03371655
161	0x3c6abf8f	0.014327898
162	0x3d59aab7	0.053141322
163	0xbde4cc8c	-0.11171827
164	0xbc9bd2e7	-0.019021465
165	0x3dbdaaf2	0.09261121
166	0x3d0594bf	0.03261256
167	0xbdae10c8	-0.084992945
168	0x3db00197	0.08594053
169	0x3d810ff9	0.06301875
170	0x3dea9cbb	0.11455675
171	0x3dfa2728	0.122145
172	0x3d2a9f5e	0.04165589
173	0x3c38c0bb	0.011276419
174	0x3be03507	0.006842259
175	0x3d9869f7	0.07442086
176	0x3d42a2be	0.047518484
177	0xbdec854b	-0.11548861
178	0xbda7d62e	-0.081951484
179	0xbe857e7d	-0.26073065
180	0x3d4afe6d	0.049559046
181	0x3d83a500	0.064279556
182	0x3c98e728	0.018664911
183	0xbdb29a22	-0.08720805
184	0x3d239f84	0.039947048
185	0x3d22e593	0.03976972
186	0x3dce3aa9	0.10069782
187	0xbaaff25d	-0.001342367
188	0xbd508f57	-0.05091795
189	0xbd5ee77b	-0.054419976
190	0xbd150ec0	-0.03639102
191	0x3e00dea8	0.12584937
192	0x3d47634b	0.048678678
193	0xbd07c21f	-0.033144113
194	0xba607816	-0.0008562816
195	0x3d538f66	0.051650427
196	0xbd0cfc61	-0.034420375
197	0xbdb1e67a	-0.08686538
198	0xbd456fc5	-0.048202295
199	0x3d740c10	0.059581816
200	0xbba1ade0	-0.0049340576
201	0xbca31b4e	-0.01991048
202	0xbdd2a6e9	-0.10285742
203	0x3d34567e	0.044027798
204	0x3d08457d	0.033269394
205	0xbdd1d438	-0.10245556
206	0x3d1febb5	0.039043147
207	0x3e86b626	0.26310843
208	0x3d846d7a	0.064661935
209	0x3e1c635f	0.15272282
210	0x3d7c69e6	0.06162443
211	0x3d2a1b8e	0.041530184
212	0x3e19ff28	0.1503874
213	0x3e1ad14e	0.15118906
214	0xbd4e04f0	-0.050297678
215	0x3c8419bf	0.016125558
216	0x3de2e7bf	0.11079358
217	0x3ddb6e25	0.10714368
218	0x3c44d8e2	0.0120145995
219	0xbccba60e	-0.024859454
220	0x3e162d01	0.14665605
221	0x3d20f2d6	0.039294086
222	0x3cd4f3c1	0.025995137
223	0xbd8c634d	-0.068548776
224	0x3cadbc74	0.021208026
225	0xbcb919b9	-0.022595273
226	0x3e147704	0.14498526
227	0xbc07a497	-0.008278987
228	0x3c83a1a5	0.016068289
229	0x3c8d20ff	0.017227648
230	0x3e17fca9	0.14842476
231	0x3d467554	0.048451737
232	0xbe131a1b	-0.14365427
233	0xbd474606	-0.048650764
234	0x3d0850b1	0.03328008
235	0x3cd920ce	0.0265049
236	0xbdb1e1e6	-0.08685665
237	0xbae48490	-0.0017434526
238	0x3d829488	0.06375986
239	0x3dcaeec3	0.099088214
240	0xbcf454df	-0.029825626
241	0x3d90435b	0.07044097
242	0x3d3a8c4c	0.045543954
243	0x3ceb07e1	0.02869028
244	0xbe32b5ab	-0.17452113
245	0xbdd2d64d	-0.10294781
246	0xbd1fdf24	-0.039031163
247	0xbe027241	-0.12738897
248	0xbe5fb2a9	-0.21845497
249	0xbd4d73be	-0.05015921
250	0x3b19237b	0.0023367095
251	0x3d147649	0.036245618
252	0xbdcd2cd9	-0.1001832
253	0xbe100b5c	-0.14066833
254	0x3e01001f	0.12597702
255	0x3dc302c0	0.09522009

bias f4 [50]
0	0xbd1dbb73	-0.038508844
1	0xbd15d306	-0.0365782
2	0x3c4c2f8c	0.012462508
3	0x3d84b231	0.064793
4	0x3bf2ebf8	0.0074133836
5	0xbd23ccdb	-0.039990287
6	0x3aa1c5fd	0.001234233
7	0xbd576d0d	-0.052594233
8	0x3c13eb87	0.009028322
9	0xbdb2832f	-0.087164275
10	0xbd7ef30e	-0.062243514
11	0x3cef1a33	0.029187297
12	0x3ce27a2c	0.027646147
13	0x3d95c240	0.07312441
14	0xbd23841c	-0.03992091
15	0x3d288e48	0.041151315
16	0xbdb5771b	-0.08860608
17	0xbd039724	-0.03212656
18	0x3bed59ef	0.007243387
19	0xbd612245	-0.054964323
20	0xbd053320	-0.03251946
21	0xbd66a057	-0.056305256
22	0xbd12a234	-0.03579922
23	0x3d064236	0.032777987
24	0xbd813939	-0.063097425
25	0xbc98e941	-0.018665912
26	0xbd803874	-0.062607676
27	0x3d706914	0.05869396
28	0xbd2c3fda	-0.04205308
29	0x3d10985e	0.03530156
30	0x3d069d88	0.032865077
31	0xbd0db771	-0.03459877
32	0x3d5e4747	0.054267194
33	0x3d012001	0.031524662
34	0x3d20bfbd	0.039245356
35	0xbb9fbcd7	-0.0048748064
36	0xbc823d1c	-0.01589828
37	0x3d0a626e	0.033785276
38	0xbd12e3fc	-0.035861954
39	0x3decb598	0.11558074
40	0xbccd68d0	-0.025074393
41	0xbcec8d93	-0.028876102
42	0xbd3b2b9a	-0.04569588
43	0xbc178293	-0.00924744
44	0xbd7a0d83	-0.061048042
45	0xbb3affce	-0.002853382
46	0xbc30a2fe	-0.010781048
47	0xbd2c1d08	-0.042019874
48	0x3d8307bb	0.06397959
49	0x3c9670f5	0.018364409

weight f4 [10, 50]
0	0xbe6505fb	-0.22365563
1	0xbd9bb51c	-0.07602903
2	0xbd0ab236	-0.03386136
3	0x3df8a70e	0.12141238
4	0xbdd069b2	-0.1017641
5	0xbe55b188	-0.20868504
6	0xbe56265a	-0.20913067
7	0xbd70077a	-0.05860088
8	0xbd94a055	-0.072571434
9	0xbe422b3f	-0.1896181
10	0xbea28f25	-0.31749836
11	0xbe18bfbc	-0.14916891
12	0xbe1d6407	-0.15370189
13	0x3e10802e	0.14111397
14	0x3df0a3c2	0.11749984
15	0xbdb56071	-0.08856285
16	0xbe29cf77	-0.16583048
17	0x3da9777a	0.082747415
18	0xbd929275	-0.07156841
19	0xbdcdcb1f	-0.10048508
20	0x3e17bfe7	0.14819299
21	0xbe6cccee	-0.2312505
22	0x3d6cd536	0.05782052
23	0x3e0ecc9b	0.13945238
24	0x3dbcbce7	0.09215718
25	0xbe1b316a	-0.15155569
26	0xbe6b00b4	-0.22949487
27	0xbe506e4c	-0.20354575
28	0xbd7a30c7	-0.061081674
29	0x3dff79e1	0.124744184
30	0xbe7898b4	-0.24277002
31	0xbdab061c	-0.08350775
32	0xbe9847c2	-0.29742247
33	0x3d46e322	0.048556454
34	0x3d3d4496	0.046207987
35	0x3dfb363e	0.12266205
36	0xbe95c370	-0.2925067
37	0xbbaa5a3f	-0.0051987465
38	0xbe0f6d9d	-0.14006658
39	0x3e2ee1b7	0.17078291
40	0xbe3d10a5	-0.1846338
41	0x3e248207	0.16065226
42	0x3e69a45c	0.22816604
43	0x3df5cb4f	0.12001669
44	0x3e66c084	0.22534376
45	0x3ba64add	0.0050748424
46	0xbe5bd651	-0.21468474
47	0xbd9ab8d2	-0.07554783
48	0x3de2563d	0.11051605
49	0xbeb184cf	-0.34671637
50	0x3e394eb0	0.18096423
51	0xbc14aa42	-0.009073796
52	0x3db2c3e2	0.08728768
53	0xbe7c66c1	-0.24648573
54	0xbd2ee2b4	-0.04269667
55	0xbc721458	-0.014775358
56	0x3e3cbc6b	0.18431251
57	0xbd0d83ec	-0.03454964
58	0x3e29f0b5	0.16595729
59	0xbe2b7eee	-0.16747639
60	0x3db8d274	0.09024516
61	0x3de63ff5	0.112426676
62	0xbe26d228	-0.16291106
63	0x3dd42a5a	0.103596404
64	0xbe919f91	-0.28442052
65	0x3c65c8df	0.014024942
66	0xbe10e864	-0.1415115
67	0xbd5ca397	-0.05386695
68	0xbe0a3712	-0.1349757
69	0x3dcb2de4	0.09920862
70	0xbe76848c	-0.24074
71	0xbe34bfa0	-0.17651224
72	0xbe80c571	-0.25150636
73	0xbe23fff4	-0.16015607
74	0x3ca5e601	0.020251276
75	0xbed0229c	-0.40651405
76	0xbeb9a4b4	-0.3625847
77	0x3e39e182	0.1815243
78	0xbde07d95	-0.10961453
79	0xbe7eedab	-0.2489535
80	0xbdf137de	-0.11778234
81	0xbdc563f0	-0.09638202
82	0x3e6b8d5f	0.23003148
83	0xbdf901de	-0.12158559
84	0xbc88f0e4	-0.016716428
85	0xbe851dfc	-0.2599944
86	0x3e3bebe7	0.18351708
87	0x3da2864a	0.0793577
88	0x3df967dc	0.12178013
89	0x3e261bb4	0.16221505
90	0xbe5de017	-0.21667515
91	0x3e1319ac	0.14365262
92	0xbdb3a7ea	-0.087722614
93	0xbde8ba16	-0.11363618
94	0xbe67dc18	-0.22642553
95	0xbcd9f609	-0.026606577
96	0x3dfa9b3e	0.12236641
97	0x3d293f3b	0.041320067
98	0xbea31955	-0.31855264
99	0xbe306986	-0.17227754
100	0x3e25c5e7	0.16188775
101	0xbdfbfab6	-0.12303679
102	0x3dda35d7	0.106548004
103	0xbe262fcb	-0.16229169
104	0xbdafe41c	-0.0858843
105	0x3e13d3b3	0.14436226
106	0xbe57fc80	-0.21092415
107	0x3d4be1e3	0.04977597
108	0x3e0562bc	0.13025945
109	0x3e09481f	0.13406418
110	0xbe009b1d	-0.12559171
111	0xbe26a7e5	-0.16274984
112	0xbdb039e2	-0.0860479
113	0xbe044468	-0.1291672
114	0xbdeae091	-0.11468614
115	0xbdebf301	-0.11520959
116	0xbdfbd8f9	-0.122972436
117	0x3dca0e69	0.0986603
118	0xbcd75831	-0.02628717
119	0xb8fb2cfd	-0.000119769924
120	0x3df28acb	0.11842879
121	0x3dff1d23	0.12456729
122	0x3d53c763	0.051703822
123	0x3e42d481	0.19026376
124	0x3dec8874	0.11549464
125	0xbc43fe29	-0.011962452
126	0xbe505240	-0.20343876
127	0x3e4690e5	0.1939121
128	0x3cb21b6a	0.021741588
129	0x3dad5f10	0.08465397
130	0xbdbd5cdd	-0.09246228
131	0xbda1217b	-0.07867714
132	0xbdba2fd5	-0.090911545
133	0xbd84bd52	-0.064814225
134	0x3c229cf9	0.0099251205
135	0xbe5b3eeb	-0.2141072
136	0x3bdbc905	0.006707313
137	0x3d507922	0.05089677
138	0x3e05da3a	0.13071528
139	0xbe424a36	-0.18973622
140	0xbe63ed5a	-0.22258511
141	0xbd235eaf	-0.03988522
142	0x3e78569c	0.24251789
143	0x3dbf016a	0.093264416
144	0xbe437612	-0.19088009
145	0x3dc50c84	0.09621528
146	0xbe32112e	-0.17389366
147	0x3d49217d	0.049104203
148	0xbe079338	-0.13239753
149	0x3dc7e2e5	0.097600736
150	0x3e16cc1e	0.14726302
151	0xbe41b4e7	-0.18916665
152	0xbdaa6c8f	-0.08321487
153	0xbe989597	-0.29801628
154	0xbe0566ae	-0.1302745
155	0x3e322de8	0.17400324
156	0xbe0b4293	-0.13599615
157	0x3dbfa5ef	0.09357821
158	0x3e16f0b2	0.14740255
159	0x3e33cc1e	0.17558333
160	0x3e180b40	0.14848042
161	0xbea2c49e	-0.31790632
162	0xbda32cf3	-0.07967558
163	0xbe4575f8	-0.19283283
164	0x3e0a2021	0.13488819
165	0x3e0ab321	0.13544895
166	0x3c27d575	0.010243763
167	0xbc483664	-0.012219999
168	0xbd86d2f1	-0.06583203
169	0x3dd42aee	0.10359751
170	0xbe8e8f76	-0.27843827
171	0xbdb01c2b	-0.085991226
172	0xbe17c42c	-0.14820927
173	0xbe6ab650	-0.22921109
174	0x3d9e92df	0.07742857
175	0x3e1698c1	0.14706708
176	0x3e00e0e9	0.12585796
177	0xbcf3eb59	-0.029775308
178	0x3db3d0e4	0.08780077
179	0xbe3613f3	-0.17781048
180	0xbb9f81f5	-0.004867787
181	0x3cae2f05	0.021262655
182	0xbea6464f	-0.32475516
183	0xbe04ed53	-0.12981157
184	0x3d38f58b	0.045156043
185	0xbe284f81	-0.16436578
186	0xbe070b7c	-0.13187975
187	0xbe07db20	-0.13267183
188	0xbe8fabe8	-0.28060842
189	0xbe570d55	-0.2100118
190	0x3df3bcff	0.119012825
191	0x3e49ad82	0.19695094
192	0xbe45936c	-0.19294518
193	0x3d556a0c	0.052103087
194	0xbdfa2cbb	-0.12215563
195	0xbe1d8012	-0.15380886
196	0xbe241c0c	-0.16026324
197	0xbcd09053	-0.025459444
198	0x3e2e91d0	0.1704781
199	0x3e011453	0.1260541
200	0xbe102d3f	-0.1407976
201	0x3e1a2ba3	0.15055709
202	0xbe11a9e3	-0.14224963
203	0x3e07e168	0.1326958
204	0x3d9d1d71	0.07671631
205	0xbe538e05	-0.20659645
206	0x3e3d04af	0.18458818
207	0x3e05f234	0.13080674
208	0xbeb5339b	-0.35390934
209	0xbe980412	-0.29690605
210	0x3dddc394	0.10828319
211	0x3d487cd4	0.04894717
212	0x3e49a21f	0.1969075
213	0xbe243fab	-0.16039912
214	0x3e11c987	0.14237033
215	0xbdafc03e	-0.08581589
216	0x3e247e50	0.1606381
217	0xbdf55d67	-0.11980706
218	0x3de84c17	0.11342638
219	0x3e07a8be	0.13247964
220	0x3dd5227c	0.10406968
221	0x3e06cfaa	0.13165155
222	0xbe3b01b2	-0.18262365
223	0x3e1d151e	0.15340087
224	0xbdcc2030	-0.09967077
225	0xbe1b606b	-0.151735
226	0xbd55a6ed	-0.052161146
227	0xbdcb7cd9	-0.09935922
228	0xbd22d797	-0.039756384
229	0xbe768f09	-0.24078001
230	0xbdfba9e9	-0.12288267
231	0xbcad7fc3	-0.021179086
232	0x3e61c1b7	0.22046553
233	0x3d4a7669	0.04942933
234	0x3e0000b7	0.12500273
235	0x3d974368	0.073859036
236	0x3e4ddeca	0.20104519
237	0xbda48d44	-0.08034757
238	0x3da536ac	0.080670685
239	0xbe430be5	-0.19047506
240	0xbe329067	-0.17437898
241	0xbe53ac0c	-0.206711
242	0xbd2876d2	-0.04112894
243	0xbcf11051	-0.029426726
244	0xbd354e2b	-0.044264
245	0xbccbd795	-0.024883071
246	0x3e0521e6	0.13001212
247	0xbca07c56	-0.019590538
248	0xbe253d73	-0.16136722
249	0xbedc2664	-0.4299804
250	0xbe7a1fb3	-0.24426155
251	0x3e07f348	0.13276398
252	0xbe1fb221	-0.15595295
253	0xbe459b01	-0.1929741
254	0x3d528edb	0.05140577
255	0xbe78ea0f	-0.24308036

bias f4 [10]
0	0x3dfdb845	0.12388662
1	0x3e5d44e9	0.21608318
2	0xbddd4e6a	-0.10805972
3	0x3da9b853	0.0828711
4	0xbec4264c	-0.38310468
5	0xbdfb405c	-0.12268135
6	0xbe574735	-0.21023257
7	0x3c8ae1a5	0.016953299
8	0x3df4e857	0.11958378
9	0x3e9c074b	0.30474314
