mlruns/0/b3d5fb11037749ed93eeae6dabf82fcf/artifacts/mnist_model/data/model.pth (torch, 96936 bytes, 8 tensors)

weight f4 [10, 1, 5, 5]
00000000: 7c8a 153e 1a1a 3dbd df47 683d f2bb f4bd
00000010: 7bc4 03bd 7c87 5c38 7083 603c f22e 64be
00000020: a788 6ebe b4c7 35be 0a9b e63a 2a37 66bd
00000030: 50f5 31be d12b 32bd 218f 7abe 5e6d 9e3c
00000040: 304c 05be df56 f5bd 1bc7 36bd 06b9 1bbe
00000050: 28b4 57bd 4524 95bd 35e8 c7bd a818 2abc
00000060: 3718 2c3d 2462 77bd 0403 2bbe ea65 08bd
00000070: 56e4 c9bc c138 e1bd b0da 35bc d007 a4bd
00000080: 9f72 55be 5d8c 49bd 9d4c 1dbe c12e 39bc
00000090: 0dd0 85bd f822 88be df0c 95bd 493d 6ebe
000000a0: a627 6a3d 2c1b 623e 9f0e 253e 24da 6abc
000000b0: 6e49 52be bfd4 963e d3c5 3e3e d329 9b3e
000000c0: e8dd d73d a3ca b33e 5c48 cebe 896a d0be
000000d0: 27a3 debd 7840 563e 7bbb d93e 1e4c 9ebe
000000e0: a8ba fabd b884 933d 41fe ca3e 4e0e 573e
000000f0: 55cc 92be d298 48be 4ba6 9f3e 8a4a d63e
00000100: c03d aebd d555 29be d26d 003e 6c06 b83e
00000110: c0bc ae3e 525f d1bd ec5e 223a bffd a53d
00000120: 22ce 863e 4375 9c3e 87be 693e 45fe 89bd
00000130: c6ca aabe dac1 dabe 1a9b 12bd 065f 573e
00000140: 4664 aabe 6dfa 8ebe 3639 593d eeb7 943d
00000150: d4c3 a13e c0fa babb 77b8 b23e ae3b bf3e
00000160: 61cb 993e 6db1 4c3e 58c5 a23e ff76 993e
00000170: 23dc 073e 48e3 363b 0664 9fbc b23a 16bd
00000180: 2db9 e9bd ae7b aebe 90b7 1fbe 4bef ae3b
00000190: d295 84bd 862c 983e 95d1 853e 90d6 1ebd
000001a0: aca8 00bf 9c5e 02be 0d7d 123e 5938 0d3f
000001b0: e8ab 0d3d bc31 20bf c2d2 e6be 9b09 713e
000001c0: 3d4d 053f 40f7 c83e 23db 7abe c953 b4be
000001d0: aa4d c1bd b2cb 693e 0cda f03e 093e 4cbd
000001e0: 360f 53be a7d9 33be ecf9 8c3c f1c7 ac3e
000001f0: 27a1 733e 6641 92be 37d2 1cbd c000 80bd
00000200: 8002 37bd 122f 4bbe 1c50 76bd 0cc8 ffbc
00000210: 5bf1 9fbe 116e cdbe 91b4 82be 7947 823e
00000220: d3ee cc3d 41c4 85bb d48c c0be 87ef 3bbe
00000230: 3177 833e f486 013e cebf dd3e 73d5 f33e
00000240: 569d 5d3e 208c a8bd 87a4 61be e023 513e
00000250: 2580 d53e b22f 9c3e 9d93 2e3d d58e a4be
00000260: bb2f d33d 941e 843e f95f 823e 1c06 a7be
00000270: 2356 5fbd 8de7 9e3e efda 823e dcda 4dbc
00000280: c502 fdbe 9bc8 943e 335d 273f 513e 3b3e
00000290: 76cd 6ebe d925 0b3d 79a3 eb3e 4f9d c83e
000002a0: 1555 b4be 9a1b a7be 748b ba3e 389b a23e
000002b0: 6ebf a9be e2d9 02bf 3137 4dbe 4c12 973d
000002c0: 337a ac3e 5c66 ab3e a7e2 f73e 9056 9f3e
000002d0: 2983 2ebd 6fe1 07be 95cd f03d cf1e 113e
000002e0: 61d7 8e3e d4a8 afbe f828 d7be e410 dabe
000002f0: 1e2c b6be a5d4 6bbc 92f3 013e 184c 2cbe
00000300: 55d1 c8be c0b3 84be 0d6c f9bd cb33 debc
00000310: 1fdc f93d 6a99 f63d e213 69bc c5d1 a4bd
00000320: 5ef3 213e ac13 ae37 ad8e 853d a0b2 fabd
00000330: d2ae 9cbd 4d02 87be a57d f3bd 4bdc 93be
00000340: 002b 1dbe 7aee 61bd 547e 5dbe d4fa 86be
00000350: 7347 5dbe 6f56 debd 2bc3 09be 4bd4 0bbe
00000360: 36d7 bbbb 3179 4dbe 7483 abbd a9d1 0e3e
00000370: 4b8d 8bbc 5241 85bd e7f5 513e f14f 863e
00000380: d65f 883e 95b6 e63c 1f0d 3bbe ef29 7e3d
00000390: 3673 b0bd 92a5 e2bd 8036 223e 4995 acbe
000003a0: a836 5dbe 972e 88bc 7b25 49be 9130 803e
000003b0: 32cd 51be 2e43 f9be 106d aabe bedd 4bbe
000003c0: 717a 8b3e f56c a13e d2b8 be3e 5d40 533e
000003d0: 2f7d 013e 4a4c 1d3e 828d c33e 73aa a13e
000003e0: b99f 713d f8e8 31bc
0.14603609 -0.04616747 0.056709167 -0.1194991 -0.0321698 5.2578267e-05 0.013703212 -0.22283533
-0.23294316 -0.17751962 0.0017593813 -0.056204952 -0.17378736 -0.043498818 -0.24468662 0.01933926
-0.13017344 -0.1197946 -0.044623476 -0.152073 -0.052662045 -0.072823085 -0.09761087 -0.010381855
0.04201528 -0.06039633 -0.16700369 -0.033300318 -0.024645012 -0.10997153 -0.011099502 -0.080093026
-0.20844506 -0.049206126 -0.15361257 -0.011302651 -0.06533823 -0.2658918 -0.072778456 -0.23265566
0.057166718 0.22080678 0.16118859 -0.014334235 -0.20535824 0.29459187 0.18630151 0.30305347
0.10540372 0.35115537 -0.4028958 -0.4070628 -0.108709626 0.2092303 0.4252585 -0.30917448
-0.12242633 0.072030485 0.39647105 0.2100155 -0.28671518 -0.19589546 0.3118156 0.41853744
-0.08507872 -0.16536649 0.12541893 0.359424 0.3412838 -0.10223259 0.0006193954 0.08105039
0.26329142 0.30558214 0.22826587 -0.06737951 -0.3335783 -0.42726022 -0.035792448 0.21032342
-0.33279628 -0.27925435 0.053033076 0.07261644 0.31594718 -0.0057061613 0.3490636 0.3735022
0.30037978 0.19989558 0.31791186 0.299736 0.13267569 0.0027906466 -0.019456875 -0.03667707
-0.114122726 -0.34078735 -0.15597367 0.0053385845 -0.064738885 0.2972147 0.2613646 -0.03877884
-0.5025737 -0.12731403 0.14305516 0.55164105 0.03458777 -0.6257589 -0.4508267 0.2353882
0.5207098 0.39251137 -0.24497657 -0.35220173 -0.09438641 0.2283161 0.47041357 -0.04986385
-0.20611271 -0.17563497 0.017209016 0.33746293 0.23791943 -0.2856552 -0.038286414 -0.06250143
-0.04468012 -0.19842175 -0.060134992 -0.03122332 -0.31238827 -0.40123037 -0.25528386 0.25445154
0.100064896 -0.004082233 -0.37607443 -0.18353091 0.25676873 0.12649137 0.43310398 0.47623786
0.2164205 -0.08229852 -0.22035418 0.20423841 0.4169933 0.3050514 0.042621244 -0.32140222
0.10311838 0.2580458 0.25463846 -0.3262185 -0.054525506 0.31036034 0.25557658 -0.012564387
-0.49416175 0.290593 0.65376586 0.1828549 -0.23320565 0.03397164 0.46023157 0.39182517
-0.35221162 -0.32638246 0.3643452 0.31759048 -0.33153862 -0.5111371 -0.20040585 0.07376537
0.3368698 0.33476532 0.4841511 0.3112073 -0.042605553 -0.1326959 0.11757962 0.14171909
0.27898696 -0.34308493 -0.42023444 -0.42591012 -0.35580534 -0.01439396 0.12690571 -0.16825902
-0.39222208 -0.25918388 -0.12178812 -0.027124306 0.12200188 0.1204098 -0.014225932 -0.08047823
0.15815493 2.0751577e-05 0.06521354 -0.12241101 -0.07650532 -0.26368943 -0.11889199 -0.28879008
-0.15348434 -0.05515907 -0.21630222 -0.26363242 -0.21609287 -0.1085633 -0.13453357 -0.13655202
-0.0057324423 -0.20065762 -0.08374682 0.13947167 -0.017035147 -0.065065995 0.2050396 0.26232865
0.26635617 0.028163234 -0.18266724 0.06205171 -0.08615725 -0.11066736 0.15841103 -0.33707646
-0.21602881 -0.016623778 -0.19643204 0.25037053 -0.20488432 -0.48684067 -0.33286333 -0.19908807
0.27241853 0.3152844 0.37250382 0.20630021 0.1264541 0.15361133 0.381939 0.31575355
0.058990214 -0.010858767

bias f4 [10]
00000000: 0bd3 97be 2725 15bd 0836 5ebc 0172 913e
00000010: 79b6 44be 1955 803d c8d5 683d e31f 52be
00000020: 72fc 00bf 0c5e 343e
-0.296532 -0.036412384 -0.013562687 0.2840729 -0.19210233 0.06266231 0.056844503 -0.20519976
-0.503852 0.17614001

weight f4 [20, 10, 5, 5]
00000000: 8257 223d 9b78 87bd ceb0 aabc 736c 573c
00000010: 6dd6 c3bb 92f9 dcbc 2ece 1fbd d73e 28bd
00000020: 14f5 3bbd 621b 0fbd 92b0 f23b aeb9 9dba
00000030: 4fe0 373d 6422 d7bc 5203 26bd 9f7f c13c
00000040: 3c55 573c da16 47bd 22f7 503c fa74 24bd
00000050: 5392 6dbd b45f 66bd 1277 033c a503 79bd
00000060: 1f05 363d 47a1 28bd 027f 83bd 5e97 163c
00000070: b5d3 1c3d 8eb8 263d 61c7 5dbd 3f3c 52bd
00000080: c8bb c0bc 32fc 103a 8c2c f1bb 836b 443c
00000090: 078c bcbc cab9 5cbd 0d46 71bc 6e97 f23b
000000a0: 7ece 973b 5fac ef3b 9b1c 93bd b412 64bd
000000b0: 6a39 d2bc 6c19 22bd 92e1 4d3d 6cdc 16bc
000000c0: 4554 0dbd 921f 2c3d 9a77 83bd 86b3 3f3c
000000d0: 8cf4 1f3d be8f 803c 5b5c 7cbd b941 72bc
000000e0: d9aa 9c3c d6e4 49bd 2e0b 8abd 2e08 68bd
000000f0: 8d79 bb3c 20af f7ba 9001 50bd 07b9 2c3d
00000100: ca9e 75bd c7d2 06bc 25f3 87bd 44f5 d53a
00000110: 4d37 133a a7d2 813c 7170 efb7 0f68 73bd
00000120: 42cb ce3c f8fd 38bd 0c84 17bc 68e7 e1bc
00000130: e7e0 cf3b 164c 283d 089b 263d 159b f9bc
00000140: 3958 15bd 0add 0c3d 10f6 4ebd 798c 463d
00000150: be6d dbbc 69eb 12bd 2691 e3bc 8f48 51b9
00000160: d446 493b 56b3 203d 4463 8cbd 2a9d c8bc
00000170: 8201 bf3c 7f4f 55bd 2575 1bbc cb11 00ba
00000180: fc63 89bd 518c 133d cd16 8abd e713 07bd
00000190: 1308 463d b3d0 48bc 0323 97bd 8687 70bd
000001a0: 013e 4cbc a872 21bd ab7e 7a3a 0026 db3c
000001b0: 003a 0e3d dc57 68bd cc9a ac3c 8b90 40bd
000001c0: abcf a3bc df2b b9bc e06b 8dbd 9baf abbd
000001d0: 4f45 4dbd 55e2 70bd cb57 433d af90 473c
000001e0: bef0 923c 9ff1 f33c edc3 8a3c 68e1 12bd
000001f0: 78f8 78bd b3dd 073d 8b6d 843c c2b8 aa3c
00000200: 5cd6 a93b fe1f 26bd 0888 54bd 552f 40bd
00000210: 76b7 0e3d e99c 1d3d 2ec2 94bd f27a 50bd
00000220: 7674 20bd b22e 5d3d 1bd4 9eba e27f 2c3d
00000230: 3626 8f3c 943b 15bd bb9c 31bd 2155 c8bc
00000240: 8b36 d3bc 3939 503d 137e d63c e13e 84bd
00000250: 93bf 7abc f4fb 633c 1636 26bc d1a4 8bbc
00000260: dbb3 21bd a461 ebbb 5216 d9bb b93e 07bd
00000270: 12e2 00bd 99d7 813c bec4 26bd 7081 cdbc
00000280: 9012 4bbc 8f66 1b3c 4d08 753c 8c0d 49bb
00000290: d4ac e7bc 4e36 7e3b 0ddc 5d3c e71a b93c
000002a0: 6845 99bd 5934 75bc 832e 7d3c e303 dd3c
000002b0: 794e 90bd c43c 3bbd fc3f 64bc f02a 3bbc
000002c0: 2fdf 3f3c 87a3 5fbd c7b9 72bd 933e c03b
000002d0: 769a f5bc bcb2 8ebd 469f 7fbd 7bb5 e9bc
000002e0: 0756 6dbd 1670 1cbd c4bd 0d3c 734b c93c
000002f0: a11c 08bd 5a8b e2bb f22b 11bd 9fe9 bebc
00000300: 6e4c 1dbd 49f1 3d3d f75a d53c 99f6 263d
00000310: 67f4 adbc 3904 613c e1c5 7fbd c58d 0e3d
00000320: cf45 183d 3a84 a9bc 2b3d f03c af0b 2c3d
00000330: eeeb ecbb 1384 78bd bd50 79bd 113e 4a3d
00000340: b331 2f3d f1e8 18bd 5991 80bd 76d5 9bbc
00000350: 3f28 333d f431 0d3d bfa8 07bd f847 623c
00000360: 291b 503d b050 8cbd cdd5 1a3d 44fc 3a3c
00000370: 364b 34bd 9045 013c c894 353d dada 913c
00000380: 9451 2b3d f6a2 a03c 5573 97bc 189b 6abd
00000390: b92f ff3b 22d6 fcbc 68ea f93c 476f 86bd
000003a0: cf07 b33c 5746 323c 56fa 94bd 8202 293d
000003b0: 93b3 6cbd 0110 283c f912 ebbc d1ae 8abd
000003c0: 380b fabb f24f 95bd a457 60bd a02d da3b
000003d0: d916 3a3d 84b3 34bd 5ba1 74bd 8224 1d3c
000003e0: 683a 8abc 21e8 0b3d f106 733d 804a c83c
000003f0: c435 593d b0c0 2a3c 25c1 b2bd e52c b53d
0.039634235 -0.066148005 -0.02083626 0.013148415 -0.0059764893 -0.026974473 -0.039014988 -0.041075554
-0.04588802 -0.034938224 0.0074063027 -0.0012033486 0.04489165 -0.026261516 -0.04053051 0.023620425
0.01314288 -0.048605777 0.012754234 -0.04015062 -0.058000874 -0.056243613 0.008023994 -0.06079449
0.044438478 -0.04116943 -0.06420709 0.009191362 0.038287837 0.04070335 -0.05414522 -0.051326986
-0.023527041 0.0005530744 -0.0073600467 0.011988523 -0.023015989 -0.05388812 -0.014726174 0.0074033057
0.00463277 0.0073142494 -0.071831904 -0.0556819 -0.025662143 -0.039575025 0.05026395 -0.009207826
-0.034504194 0.042022295 -0.064192966 0.011700517 0.039051577 0.015693542 -0.061611515 -0.014786177
0.019124435 -0.0492905 -0.067404136 -0.056648426 0.022885108 -0.0018896796 -0.05078274 0.042168643
-0.059965886 -0.008228964 -0.06638173 0.0016323705 0.00056158454 0.015847517 -2.854338e-05 -0.05942541
0.025243405 -0.04516408 -0.009247791 -0.027576163 0.006343949 0.041088186 0.040675193 -0.030469457
-0.03646109 0.034390487 -0.050527632 0.04847381 -0.026785728 -0.035869036 -0.027779173 -0.00019958823
0.0030712383 0.039233528 -0.06854871 -0.024489004 0.023316149 -0.052077767 -0.009488379 -0.0004885464
-0.06708524 0.036022488 -0.0674263 -0.032977965 0.048347544 -0.012256789 -0.07379725 -0.058722995
-0.012465955 -0.039415985 0.0009555618 0.026751518 0.03472328 -0.056724414 0.021069907 -0.047012847
-0.019996485 -0.022603927 -0.06905341 -0.083831035 -0.050114926 -0.058809597 0.047691148 0.012180491
0.01793706 0.0297783 0.016939128 -0.035859495 -0.060783833 0.033170413 0.016165515 0.020840053
0.0051830243 -0.040557854 -0.051887542 -0.04692014 0.03484293 0.03847972 -0.07263599 -0.0508985
-0.039173566 0.05399961 -0.0012117656 0.042114146 0.017474275 -0.03643377 -0.04336236 -0.024454655
-0.025782844 0.05083582 0.026183164 -0.06457306 -0.015304464 0.013915051 -0.010144731 -0.017046364
-0.039478164 -0.0071832705 -0.0066249752 -0.0330188 -0.031465597 0.015849875 -0.04071497 -0.025086135
-0.012394562 0.009484901 0.014955592 -0.003067824 -0.028280653 0.0038789692 0.013541234 0.022595836
-0.07483941 -0.014966094 0.015452984 0.026979392 -0.070462175 -0.045712247 -0.013931271 -0.011423811
0.011710926 -0.05459931 -0.059259202 0.0058668344 -0.02998088 -0.069676846 -0.062407754 -0.02852892
-0.05794337 -0.03819283 0.008651201 0.02457211 -0.033230428 -0.0069135847 -0.0354423 -0.023304759
-0.038402967 0.046372686 0.026044352 0.040762518 -0.021234704 0.013733917 -0.06244457 0.03480317
0.03717595 -0.020692933 0.029326042 0.04200333 -0.0072302734 -0.06067283 -0.060868014 0.049375597
0.042772006 -0.037331525 -0.06277723 -0.019022685 0.043739554 0.034471467 -0.033119913 0.013811104
0.050807152 -0.068513274 0.037801553 0.011412684 -0.04401704 0.00789012 0.044331342 0.017804552
0.041825846 0.019608956 -0.018487612 -0.057276815 0.0077876714 -0.030863825 0.030507281 -0.06564193
0.02185431 0.010881028 -0.0727431 0.041262157 -0.057788443 0.010257722 -0.02869557 -0.06771625
-0.007630732 -0.07290639 -0.05477108 0.006658271 0.045431945 -0.044116512 -0.059724193 0.009591224
-0.016873553 0.034156922 0.05933279 0.024449587 0.05302979 0.010421917 -0.08728246 0.088464536

bias f4 [20]
00000000: 7d09 2fbd f2f4 2a3d 7d45 efba 992a 313d
00000010: a61d 913b f799 afbb 9c35 873c 6ef0 11bb
00000020: 4fd1 c8bc 6b72 ff3c b8cf 543d a517 4cbd
00000030: 1eef c6bd c8ad 82bd 695e 8d3d da81 a03d
00000040: 762e 97bd d71b 223d 5c39 14bd a962 ddbc
-0.042733658 0.041737504 -0.0018254962 0.043253515 0.004428583 -0.00535893 0.016505055 -0.0022268551
-0.024513869 0.031182488 0.05195591 -0.049827237 -0.09713577 -0.063808024 0.06902773 0.07837267
-0.073819086 0.03957733 -0.036187515 -0.027024584

weight f4 [50, 320]
00000000: 910a 413d 53bb 51bd 2707 23bd 3559 3fbc
00000010: ff5f 12bd f2fa e8bc 6fce 723d e7a7 57bd
00000020: 0fbe 1c3d 7476 05bc 2337 02bd 5048 45bb
00000030: 1c5e d83c 52c2 c93c 5127 5c3b 81fb 173d
00000040: a606 043c 877c 55bd ab6f 90bc d8a3 93bc
00000050: f0f6 29bd 80e3 83bc 6b8b 96bd eff6 11bd
00000060: 6259 cdbc d6b5 0dbd fc6a 57bd 6032 6bbc
00000070: ee94 583b 8a3c babc efe3 81bc bbd9 173d
00000080: b969 bbbc ad5b 77bd d91b 2a3c 0656 be39
00000090: d846 15bd 19ae 46bd 414c 8ebd efc6 483d
000000a0: d17f 37bd 40e0 aabc 07ad 11bd 4fd3 ff3c
000000b0: 2630 61bd 5466 1d3d 5537 86bd f5e1 a5bd
000000c0: b799 a1bd 145c a4bb 253b e7bb 9ad1 8cbd
000000d0: d428 1abd fa36 263c 436f 7cbd e2ea 87bd
000000e0: 6cfc 2dba 6da7 27bc a1bb 5abc 449d 29bd
000000f0: 077c 32bd 567a ef3c 028a 0dbd 3e0b ccbb
00000100: af42 2a3b 920b 2dbd 4368 30bd 6e73 82bd
00000110: 813c 86bd 2388 2dbc 1506 3cbd 7cc7 62bb
00000120: 6f16 43bd 9051 8dbd b85c a5bd 6dae 95bd
00000130: 757c 603b 3093 873c 978b b5bb 2a8c f8bc
00000140: b3d5 bebc be10 2cbd 4bd4 febb 7094 25bd
00000150: b866 683b 9c5d ceb8 e4fd 9ebc 0c70 0c3d
00000160: 61ba 3bbd 6431 7e3b 21e8 eebc ec56 023d
00000170: e06b 07bc 5607 aabc 9185 6bbc 757b 7bbd
00000180: 8813 39bd 165e a5bc 6e7e 0abd 0a55 2dbd
00000190: b4eb 883c 508a 843c 1a2f 83bd 86a8 c7b9
000001a0: 4429 7cbd fe99 053d bd48 a1bc cf7b 4abd
000001b0: a61e dc3b dc4e 013b 12a8 52bd dfc3 a73c
000001c0: fe14 b2bc 9654 57bd 19b2 2ebd 713e 8b3c
000001d0: 9861 c5bb d09c 36bd ed6d 97bd 8a68 2dbd
000001e0: a857 56bc 362d 313c 9aba c5bc 2b5b e93c
000001f0: 5c9a 93bd 4936 983c b025 28bd 17d3 3d3c
00000200: f95e 7bbd 2b08 d13c e219 9bbd a572 833c
00000210: 64ad 383d e687 77bc 6f54 953c e761 cb3c
00000220: 96ff 4ebc f5d7 253d d146 72bd 0e85 343c
00000230: 13cb 763c c6ec 0ebc 7fd3 b63c 1662 133c
00000240: a46e 80bd 4c6e 29bd 0c1a cabc bfff 3a3d
00000250: 9748 5cbd 9b7b d33c fd2d ea3c 21d4 1cbd
00000260: 32b6 78bd 1b9e 2bbc b2ec 73bb 8b63 0cbd
00000270: 656a 48bc 25ee 88bc 668e a0bd 41ae 05bd
00000280: da36 20bd f1de 7fbd fa65 71bd 6861 013d
00000290: 983c 95bd 6904 b0bd 818c febc 2279 e6bc
000002a0: 11c8 55bd 20db ce3c 73fa 28bd 2fb0 e63c
000002b0: 20ce 93bd e366 9fbc 481d 51bd 5efa 8b3c
000002c0: 30ae 72bc 2563 aabd 1501 07bd 9f6e e8bc
000002d0: 6604 323d f4c2 c73c 3ebc 073d 630d 4ebd
000002e0: 433f 56bd d716 9bbd e426 67bd 630b 62bd
000002f0: 05a1 4bbd b2c6 06bd 7a6d 19bd 3fe1 78bd
00000300: 91a2 a5bc e601 e73b 42b4 b9bc 0a61 813c
00000310: 6961 f7bc 01cf 783b cab4 0fbd c577 16bd
00000320: 7a2f 27bc 5a17 01bd fa5e 213b 520f a3bc
00000330: e558 ca3c 2c95 48bd 3a5d 8bbd 772e c63c
00000340: 0ef9 44bd f885 e3bc 5682 67bd 2c4b b73a
00000350: bdbd 063c 18e1 08bd c7ba 5bbc 1ddf 17bd
00000360: 9f74 45bd 8ab1 52bd 2ed4 b5bc c69f 34bd
00000370: 761f 9c3d 883b 15bd 14da 213d 1836 03bc
00000380: 4c2d 06bd 8536 a8bd f0c3 89bd f3fd c73c
00000390: 0601 2fbd 850c 90bd b8eb 3abd c5e2 383d
000003a0: 31be d8bc 6fe0 18bd 39a7 2dbd f579 a6bc
000003b0: d31e b1bc dafb 87bd fc8f 8cbd c818 82bd
000003c0: ba12 463d 98f5 6fbd a157 fa3c 6332 e13c
000003d0: 6df0 a3bb 96b9 c3bc e3bb 40bc cabf a93c
000003e0: 7dbc 12bd e379 7abd 961f 133d 289d 54bd
000003f0: 3e3d 49bd bccf 8dbb dfc0 f7bc 4532 fbbc
0.047129218 -0.051204037 -0.039801743 -0.011678983 -0.03573608 -0.028439973 0.0592789 -0.05265036
0.03826719 -0.008145917 -0.031790864 -0.0030102916 0.026412062 0.024628792 0.003359277 0.037105087
0.008058226 -0.05212071 -0.017631372 -0.018022463 -0.041495264 -0.016099691 -0.073508106 -0.035635885
-0.025067035 -0.03459724 -0.052592263 -0.014355272 0.0033047753 -0.022733945 -0.015855758 0.03707288
-0.02287756 -0.060390163 0.010382616 0.00036303716 -0.036444515 -0.048505876 -0.06948138 0.049017843
-0.04479963 -0.020858884 -0.035565402 0.03122869 -0.05497756 0.038427666 -0.065535225 -0.080997385
-0.07890647 -0.0050158594 -0.007056611 -0.06875916 -0.037636593 0.010144943 -0.061629545 -0.06636597
-0.000663704 -0.0102327885 -0.013350398 -0.041409746 -0.043575313 0.029233139 -0.034555443 -0.006226926
0.0025979688 -0.042247362 -0.04306818 -0.06369673 -0.06554509 -0.01059154 -0.045904238 -0.0034603765
-0.047628816 -0.069003224 -0.08074325 -0.0730866 0.003425387 0.016549677 -0.005540322 -0.030340273
-0.02329526 -0.042008154 -0.007776772 -0.040424764 0.0035461616 -9.8402816e-05 -0.019408174 0.034286544
-0.04583204 0.0038786763 -0.029163422 0.031821176 -0.0082654655 -0.020755451 -0.014375106 -0.061397035
-0.045184642 -0.020186465 -0.03381198 -0.042317428 0.016713955 0.016179234 -0.06405468 -0.00038081798
-0.06156279 0.03261756 -0.019688005 -0.04943448 0.0067175208 0.0019730842 -0.051429816 0.02047914
-0.021738525 -0.0525709 -0.042650316 0.016997548 -0.006023597 -0.04458314 -0.073940136 -0.042336024
-0.013082422 0.010814002 -0.02413683 0.028485855 -0.07207176 0.018580573 -0.041051567 0.011585972
-0.06136987 0.02551659 -0.07573296 0.016045878 0.045087233 -0.015108084 0.018228738 0.024826957
-0.012634179 0.040489156 -0.059149567 0.011018051 0.015063065 -0.008723443 0.022317646 0.0089955535
-0.06271103 -0.041364953 -0.024670623 0.045654055 -0.053780165 0.025815776 0.028586382 -0.03828824
-0.06072063 -0.010474707 -0.0037219939 -0.03427462 -0.012232398 -0.016715119 -0.0783966 -0.032636885
-0.03911481 -0.062468473 -0.058935143 0.031587034 -0.07286948 -0.08594591 -0.031072857 -0.028133933
-0.05219275 0.025250971 -0.041254472 0.028160183 -0.072170496 -0.01945824 -0.051053315 0.017087158
-0.014812037 -0.083196916 -0.032960016 -0.02837306 0.043461226 0.024384953 0.033138506 -0.050305735
-0.052306425 -0.07572716 -0.056433573 -0.05518664 -0.049714107 -0.032904334 -0.03745792 -0.060761686
-0.02021912 0.007049787 -0.022668961 0.015793342 -0.030197816 0.003796518 -0.035084523 -0.036735315
-0.01020419 -0.03151641 0.002462326 -0.019904766 0.024700591 -0.048970386 -0.06804891 0.024192078
-0.04808908 -0.027773842 -0.056520782 0.0013984195 0.008223948 -0.03341779 -0.01341123 -0.03707801
-0.04820692 -0.051438846 -0.022195902 -0.044097684 0.07623188 -0.036433727 0.039514616 -0.008008502
-0.032758042 -0.08213524 -0.06726825 0.024413085 -0.042725585 -0.07033638 -0.045634955 0.04513814
-0.026457878 -0.03732341 -0.042395804 -0.020321826 -0.021621143 -0.06639834 -0.068634 -0.06352383
0.048357703 -0.058583826 0.030559363 0.027489847 -0.005003026 -0.023892205 -0.011763546 0.020721335
-0.035824288 -0.061151396 0.035918795 -0.05190769 -0.04913067 -0.0043277424 -0.030243335 -0.030663619

bias f4 [50]
00000000: 8d7f ccbb 95ab 613c d518 9ebc c604 69bd
00000010: 3c03 aa3c 7ae9 94bd 4797 023d 306c 1abd
00000020: 6d39 5a3c 76c1 83bc f1bb 133d 0571 17bd
00000030: 93db 32bb 415c ee3c cbb0 773c 778a 16bd
00000040: e2b9 53bc 90ec 213c 1052 403d afc9 bdbc
00000050: 912f 10bd bdfa 2e3d 2aad 053d 3467 96bc
00000060: 44ac 753c 0ed9 efbc 2e0a 4d3d c896 77bd
00000070: 6a9b 46bc 9799 83bd afaf 4e3d d2a0 8f3c
00000080: 99a6 a33c dfd9 0c3c 4fa0 0d3d 75a8 aabd
00000090: 9e05 3e3d e61e 85bd ed90 ac3d f9cc 67bd
000000a0: aebe d83c e5f7 88bd 19f6 88bc 84b0 633d
000000b0: 8bbb 8f3c daa1 c3bc 505f e2bc 17ff 5abd
000000c0: 47b7 d9bc 701a 05bd
-0.006240791 0.0137738185 -0.01929895 -0.056889318 0.020753495 -0.072710946 0.03188255 -0.037700832
0.013319355 -0.01608346 0.036067907 -0.03697302 -0.002729152 0.029096724 0.015117834 -0.036753144
-0.012922736 0.009883061 0.04695326 -0.02316746 -0.035201613 0.04271959 0.032635845 -0.018359758
0.014994685 -0.029278304 0.050058536 -0.06044653 -0.012122015 -0.06425779 0.050460514 0.01753274
0.0199769 0.008596866 0.03457671 -0.08332912 0.046392076 -0.06500034 0.0842608 -0.05659196
0.02645811 -0.06687907 -0.016718911 0.05558826 0.017545482 -0.023880888 -0.02763334 -0.05346593
-0.026576651 -0.032495916

weight f4 [10, 50]
00000000: 5ca9 c2bd 546a 47bd 80c5 95be 5ac8 50bc
00000010: 5301 a33d 0a0b acbd a134 e4bd d931 313e
00000020: d52a 01be aa96 cfbd 0aa1 053e 3d77 813d
00000030: 2beb d53d 039b db3d 8293 d83d dbe9 81be
00000040: fc4f afbc 0aa0 12be 1ec3 0a3e 4626 3cbe
00000050: 0ac3 61bd 86ab 4fbe 4cfc 04bc 2750 d23d
00000060: ebcb 21be 5dfa 003e ee8f afbe 9bdd 02bd
00000070: 2b03 57be 6f64 a0be 0eb7 97be a57e d03d
00000080: b175 09bd 212d 443e 5b56 523d 680f 32be
00000090: d156 1abe b96c 56be b970 dcbe 7080 8c3c
000000a0: d5c9 133e aa75 3cbd 4d19 9f3d e3a8 d43d
000000b0: 656c 72be 3715 023e 5839 a5bc 5865 e03d
000000c0: 3c50 fd3d e23b 76bd 6cfb 473d 3f50 82be
000000d0: 9c86 6f3d f630 b9bd 8266 c2bc d623 24be
000000e0: f3c4 62bd fbac 70be 79fa e23d f645 fd3d
000000f0: ec11 a3bd 46f8 4d3c 14a0 2e3d f3cb bd3d
00000100: 9459 12be 5bb5 113e 5de7 c3bd 8959 5f3e
00000110: 2380 a9be 51b7 a8be e25d 13be 8fa5 753e
00000120: 6a28 89be f729 f0bc 4c44 5b3d 434a 89be
00000130: bd7f c7be a65e afbd 78bb 04be 5259 36be
00000140: 6f80 bdbe 420b e53d ce8f a5bd ac25 67be
00000150: 34c2 ee3d 9066 10be 678d e43d 6298 a9bd
00000160: d142 813e 6bfd 413e df1e 203e a3a7 ebbd
00000170: 89a4 a0be 623a 7dbe 7676 1e3e 07df e33d
00000180: 954c 2cbd 11e7 b5bb 53cb 0bbd ad7f b73d
00000190: 49b2 02be 3fa2 4cbe f6b4 41be 4107 a23b
000001a0: 923d 663d 5070 49bd ca4f ee3d 4fee f1bd
000001b0: bb00 f43d a551 673c 6948 1a3e a427 04be
000001c0: bc08 113e cd4b 9c3c 15c5 af3d c33a d73d
000001d0: 4e88 d13d 0b29 13be aab2 33be cff6 1abe
000001e0: 67fe 2e3e 4a70 8abd 53f8 3bbc a3b6 0ebd
000001f0: 38a8 b53d 11cb 8e3d 6b83 adbe 3dbb 7d3d
00000200: befc b3bd 8b0a 393d 9a40 72be 8268 3dbd
00000210: 5668 ae3d 19aa b1bd 4882 34bd af5f 76bd
00000220: 7818 e33d e39e 663e 0f29 30be c78b f4bd
00000230: f969 353e e17c 513d 31de d9bd 89dc 0abe
00000240: d8d4 96be 9859 26be 4cae 1d3d 2853 6c3c
00000250: 2d03 66bc 705c 193c 6787 333c 4948 f7bc
00000260: 5822 56be 4bfc ed3d 9983 ccbc 1df7 063e
00000270: e66e 89bd 7708 ec3d dd00 dcbd 47cf 08be
00000280: 50e6 203e 7acd 9bbd ae03 f23d 2a9d de3d
00000290: 3c31 07be a9b5 b13d 98d3 e0bd 71aa b0be
000002a0: 718e 81be 5f8a 013e 230c 08be 198e 89be
000002b0: 66bd 97be d3b5 0ebd 085c c33d eea8 51be
000002c0: 41f6 f13d f1ad a0bd 2b58 2ebe 02b2 3b3d
000002d0: 6bfb bf3d 9b41 1c3d fbaf d73c 6ed6 87be
000002e0: 7ae3 973d 27fa 8dbd a76a 4cbe 26e7 1abc
000002f0: 6255 893e 14d4 a4be 7098 e9bd 872d b2bd
00000300: 1610 463d 0e1e 8bbe 55e8 10be e107 fdbd
00000310: 7f64 0bbe 8fff a93b 22ce a93d 9524 61bd
00000320: b9da f13c 0fa4 e5bd 5af3 df3d 65ae f53d
00000330: 33fa b53d b8aa 3bbe 9d33 a9bd 8a5e 9fbe
00000340: a1fa 9abd 21fa 013e b335 51be 5d6f d9bc
00000350: 323f 14be 3272 70be e64e 49be 42b9 853d
00000360: f2ca 31bd b2a5 7d3d 5c6a ff3d d703 a53d
00000370: 6e1d 243e 620e 673e ef34 443e c880 963d
00000380: 8b5a 27be bb04 cc3d 74e8 da3c 62e5 2b3b
00000390: 2488 303e d191 22be 2a54 c13d 7c7c 9ebc
000003a0: c9af bc3d d5e0 3ebe f29e 9a3d 51d9 bbbd
000003b0: 4387 be3d e2f4 0dbe 7f90 083e 794e 513e
000003c0: 7915 12be 1daf fdbc cb5a adbe 5a0b fc3d
000003d0: 1f3d f0bd 2638 04be f693 253d 5318 1ebd
000003e0: 912a fa3b 345e 01be 5a15 acbd 7da0 3a3e
000003f0: a9db 91be 9228 b83d 2cbb fabc 64c4 013e
-0.09504959 -0.048685387 -0.29252243 -0.01274308 0.07959237 -0.08400543 -0.11142851 0.17304172
-0.12613995 -0.10136159 0.13049713 0.06321571 0.10445245 0.107229255 0.1057501 -0.2537373
-0.021400444 -0.14318863 0.13550994 -0.18373975 -0.055117644 -0.20280275 -0.008116793 0.10269194
-0.15800445 0.12595506 -0.34289497 -0.03194962 -0.20997302 -0.31326625 -0.29631847 0.101804055
-0.033559505 0.1915784 0.051351886 -0.1738869 -0.1507218 -0.20939912 -0.4305475 0.017151088
0.14432462 -0.04601065 0.077684976 0.10383775 -0.23674162 0.12703405 -0.020168945 0.1095683
0.12368819 -0.060115702 0.04882376 -0.25451848 0.058477983 -0.09042542 -0.02373052 -0.16029295
-0.055363607 -0.23503487 0.1108293 0.123668596 -0.07962403 0.0125714 0.04263313 0.09267416
-0.14291984 0.14229338 -0.095656134 0.21811499 -0.33105573 -0.3295236 -0.14391282 0.23988937
-0.26788646 -0.029316885 0.05353193 -0.2681447 -0.38964644 -0.08562975 -0.12962139 -0.1780751
-0.3701205 0.11183788 -0.08084069 -0.22572964 0.11658135 -0.14101624 0.11159783 -0.08281018
0.2524629 0.18944328 0.15636776 -0.115065835 -0.3137553 -0.24729303 0.15474877 0.111265235
-0.04206522 -0.005551227 -0.034129452 0.08959899 -0.12763323 -0.19983767 -0.18916687 0.0049447124
0.05621106 -0.049179375 0.11636312 -0.11813032 0.11914202 0.014118587 0.15066685 -0.12905747
0.14163488 0.019079113 0.08582512 0.10509255 0.10231076 -0.14371125 -0.17548624 -0.15133213
0.17089234 -0.06759699 -0.011472779 -0.034842145 0.08869976 0.069723256 -0.33889326 0.061946142
-0.08788441 0.04517607 -0.23657456 -0.046242245 0.08515994 -0.08675022 -0.04406956 -0.060149845
0.110886514 0.22521548 -0.17203163 -0.11940723 0.17716207 0.051144484 -0.10638083 -0.1356069
-0.29459262 -0.16245115 0.0384963 0.014424123 -0.014038843 0.009360418 0.010957575 -0.030185835
-0.20911539 0.11620387 -0.024965094 0.13180204 -0.06710605 0.11525052 -0.10742352 -0.1336032
0.15712857 -0.07607551 0.11817108 0.108698204 -0.13202375 0.08677227 -0.10977858 -0.34505036
-0.25303987 0.1265044 -0.1328588 -0.26866224 -0.29636687 -0.03484137 0.09539038 -0.20474598
0.11814547 -0.07845677 -0.17025821 0.04582406 0.09374126 0.038148504 0.026329031 -0.26530784
0.074164346 -0.069324784 -0.1996256 -0.009454524 0.26822954 -0.32193053 -0.11406028 -0.0870009
0.048355184 -0.27171367 -0.14151128 -0.123550184 -0.13612555 0.0051879357 0.0829127 -0.054966528
0.02952324 -0.11212932 0.109350875 0.11996154 0.08885612 -0.18326843 -0.082617976 -0.31126815
-0.07567335 0.12693073 -0.20430641 -0.02654236 -0.14477232 -0.23481062 -0.19659004 0.06529476
-0.043406434 0.061925597 0.12471458 0.08057373 0.16026852 0.2256408 0.19160818 0.07348782
-0.16343133 0.0996184 0.02672217 0.0026229252 0.17239434 -0.15875937 0.09439881 -0.019346468
0.09213216 -0.18640454 0.07549848 -0.09172309 0.09303143 -0.13862947 0.13336371 0.20440091
-0.14266004 -0.03096729 -0.33858332 0.12306853 -0.11730408 -0.12912044 0.04042431 -0.038597416
0.007634469 -0.12633592 -0.0840251 0.18225284 -0.284879 0.08992113 -0.030606829 0.12672573

bias f4 [10]
00000000: 118c 3b3e f008 863d a149 3dbd 99a7 0cbe
00000010: 9cde 8abd 2e86 443e b57e b5bd e56c a73d
00000020: b218 7fbe 9203 513d
0.1831515 0.065446734 -0.046212796 -0.13735808 -0.067807406 0.1919181 -0.08862058 0.08175067
-0.24911764 0.051028796
